logs/od600_lstm_test-b8/weights_best.tar (torch, 20571 bytes, 11 tensors)

pre_fc.weight f4 [16, 11]
00000000: 541d 4e3f 501c fa3d 1e98 d83f a252 743f
00000010: 0e97 2e40 deaa 2e40 7d20 da3e cd4f 72bf
00000020: f92f b1be c203 34bf 8cba 24c0 ac05 97be
00000030: 160f 1fbf b0da a53e 88e0 413e 249c 3c3e
00000040: 638d 033e c43a 433f 8efd 623e 1031 293f
00000050: 1146 7c3f af15 50be 5cac c0be 206c 3bbf
00000060: 0f75 1c40 9f98 4a3e 0773 253f 542a 32bf
00000070: c401 123e 96b2 273f 6b99 263e a779 8040
00000080: 9d9d aa3e 5556 26c0 cf53 9e3f fbb1 4440
00000090: ac5d 22c0 10ab b9bf 4211 27c0 194c 47bf
000000a0: c2d8 c6bf c9b9 593e 867a b1bf 7955 00c0
000000b0: fc64 17bf 174d 56be 595c 153f f94f a4bb
000000c0: 10f7 debe b054 c0be 6c73 b8be 9688 1a3f
000000d0: 8c97 593f 4aa8 fe3f 8e1e 8a3e 6df3 26bf
000000e0: 743c 08be 9085 4c3f cd19 c1bd b8a9 d3be
000000f0: d867 19be 6bff 8cbe 668f f1bc 582d 62bd
00000100: c543 8c3f 5182 173e ba46 6b3f 7665 48bf
00000110: 1e67 d33e 906a 183f 5b90 aabf 18dc ddbf
00000120: a8fe 92be a606 8c3f c682 6a3f 394a 9740
00000130: 89e0 bf3f 0d00 2a3e eb0c a9bc 73dd 203f
00000140: 9e2d 793d add9 b23f aa1d 843e fd87 3e3e
00000150: cbab 15bf a8df b7be 05f9 89bf ad8f d43f
00000160: cb8f 193e ff18 bebd f8e6 67bf 0488 203e
00000170: 2fd6 343e 6b3f a13e 1d4d a5be 1e88 38bf
00000180: 70f1 a33f b3b8 5a40 2703 8d40 a34e cfbe
00000190: 10ad f2be 457c 25be b1ea a23e b809 493f
000001a0: d46f 043f 9e9b 9abc 2143 5a3f 3f75 be3e
000001b0: 0125 9c3f 5e2d ddbc e423 a93e bdf6 9cbe
000001c0: 542e b93f c661 90be 3855 193f c047 e5be
000001d0: 1804 22be cd9e 48bc 10b9 b03d 7805 e73f
000001e0: 32e7 983d 9ec4 9cbe 5453 17be 6f37 393f
000001f0: fb4a 273c 1b47 213f b5f4 983e 422d 483e
00000200: bc86 063e 301d 533e 38ef d43f ce2e 373e
00000210: 659b ef3e 3b33 fc3d 1fbf c53e 7aa8 2ec0
00000220: 3e46 c0bf 7519 88bf 27bf 38be b4f9 25bf
00000230: 7784 f0c0 a8a0 973f 6bfc c8bf 4adf 1a40
00000240: 463f ccbe d30d aa3f 741d 3f3f 6083 db3e
00000250: 3ed0 003e 559c 053e 37b8 51bf 70e7 47be
00000260: db26 1ebf e879 f03f 00b6 993f 4f51 633f
00000270: 8ddb 073f 2092 80bf b4a5 e73e 2671 db3e
00000280: 97a5 263d 688f d73f 04ad a13d 9bd6 2f3f
00000290: 18bb edbe f772 c23f f1de df3d b585 a13f
000002a0: 628a 123f 942a bc3e bc28 f9bd 0e0e 1fbe
000002b0: 920c 143e c5ba aabd 0b25 81bf 8e82 113f
0.805135 0.122124314 1.6921422 0.9543859 2.7279696 2.729179 0.42602912 -0.94653016
-0.34606913 -0.70318234 -2.573886 -0.29496515 -0.62132394 0.32393408 0.18933308 0.18418938
0.12846904 0.76261544 0.22167036 0.6609049 0.9854441 -0.20320772 -0.376315 -0.7321186
2.4446447 0.19784783 0.6462864 -0.6959584 0.14258486 0.65506876 0.16269462 4.01485
0.33323374 -2.5990193 1.2369326 3.073363 -2.5369673 -1.4505329 -2.6104283 -0.7785049
-1.5534899 0.21262278 -1.3865516 -2.0052168 -0.59138465 -0.20927845 0.58344036 -0.0050144163
-0.4354787 -0.3756461 -0.3602556 0.60364664 0.8499687 1.9895108 0.26976436 -0.6521519
-0.13304311 0.798913 -0.09428749 -0.41340423 -0.1498102 -0.27538618 -0.029487323 -0.055219024
1.0958182 0.14795806 0.91904795 -0.7827982 0.4128961 0.595376 -1.3325304 -1.7332792
-0.28709912 1.0939529 0.91605794 4.7278104 1.4990398 0.16601582 -0.020636043 0.62837905
0.06083452 1.3972679 0.25803882 0.18606563 -0.5846526 -0.35912824 -1.077912 1.6606346
0.14996259 -0.092821114 -0.90586805 0.15676886 0.1765983 0.31493697 -0.32285395 -0.720827
1.2808056 3.4175231 4.406635 -0.40489683 -0.4739766 -0.16160686 0.3181968 0.78530455
0.51733136 -0.018873032 0.8525868 0.37198827 1.2198793 -0.026999172 0.33035195 -0.30656996
1.4467263 -0.28199595 0.5989566 -0.44781303 -0.15821874 -0.012244892 0.08629048 1.8048544
0.07465972 -0.30618757 -0.14777881 0.7235021 0.010210748 0.62999123 0.29874197 0.19548514
0.13137335 0.20616603 1.6635504 0.17888948 0.46798244 0.12314459 0.38622376 -2.729033
-1.5021436 -1.0632769 -0.18041669 -0.6483414 -7.51617 1.1845903 -1.5702032 2.4198785
-0.39892024 1.3285469 0.74654317 0.4287367 0.12579438 0.13047917 -0.81921715 -0.1952188
-0.6177804 1.8787203 1.2008667 0.8879594 0.5306938 -1.0044594 0.4524361 0.42859763
0.040685263 1.6840639 0.07894328 0.68686837 -0.46431804 1.5191334 0.109311946 1.2618929
0.57242405 0.36751235 -0.121659726 -0.15532705 0.1445792 -0.08336405 -1.008943 0.56839836

pre_fc.bias f4 [16]
00000000: ac41 96be f1be 4abe c112 35bf dd0c 14bf
00000010: c7cd dcbb 3657 20be 4284 d8be 157d b4be
00000020: 651c 3cbf 709b 8abf 8fda b2be f281 c9be
00000030: 6250 15c0 6a30 acbf c891 1ec0 f196 983d
-0.2934698 -0.19799401 -0.7073174 -0.5783213 -0.0067383978 -0.15658268 -0.42288405 -0.3525168
-0.73480827 -1.0828686 -0.34932372 -0.39356953 -2.3330312 -1.3452275 -2.4776478 0.07450665

lstm.weight_ih_l0 f4 [64, 16]
00000000: 9c8c 083f d8a1 5d3e f863 1abf 87cd 3a3e
00000010: dce3 a6bd 3139 90be 18e4 4bbe 6264 123e
00000020: 3418 97bf 7ba6 60be 7b31 87be 1fbe 16be
00000030: fd1a a1bf cc2b 77bf 722e 6ebf 8b98 41be
00000040: 118f b53e 8804 663e 82af 8a3e c039 e03e
00000050: c22e 563e d5b2 f6bd 15d6 d03e 3467 cbbe
00000060: 2267 543e 6574 08be e917 3e3e 2dbf 673e
00000070: a510 5f3e b98e 8abe 72bb a03e 1a18 80be
00000080: f6a3 023f e0d5 78be fcbd 1c3e da25 653c
00000090: c3c7 733e fa49 6a3d 6816 5d3e d81b 343d
000000a0: 3156 803e 9ecc ca3e d178 353e 4c34 48bd
000000b0: 5bdd 173f 1272 133f de3c 903e 8a8a 353e
000000c0: 8c00 833e c0b1 893e 7784 b93d 9d42 483e
000000d0: d48b 863e 96f3 7a3e 978e 953e 638c 293d
000000e0: 0303 ac3e d829 9c3e 90d2 a23e 485d da3d
000000f0: bc41 863e e130 6abe d2fa 4fbd f0f9 293d
00000100: 0faa c4be 06ea d33d 13ee 083f aee9 e6bd
00000110: 7f0d b83d 6f01 853d 699d 673e fc71 203f
00000120: 96f6 1040 7ae4 b73e aec8 103f 922f f93e
00000130: 936f 91bf db2b c13e fa3e 69bf 6aa2 7f3e
00000140: 0d18 cb3e 3008 2c3d 2ed8 5d3d e8a5 b03e
00000150: f23f efbc 27ab d5bd 876e 34ba c822 01be
00000160: 8ec2 783e 4451 c8bd db7c a93e 3ee7 7fbd
00000170: 9825 873e 2f98 9c3e 3ada 483e b541 c3bd
00000180: 408b b53d d7e3 74be a59a 5a3e cf86 c6be
00000190: 3a10 663e 9952 8fbc ad13 c7bd 6062 0b3e
000001a0: bc02 c83d e952 c83d 5fbd 693e 2134 f03d
000001b0: 16b3 5dbf c841 8c3e 3fc0 ab3e ad00 c63d
000001c0: cccb e6bc b89a 363f 84c5 173f 3cad 39be
000001d0: 56bb 063f 5c8a a73e a193 d93f 7b69 af3e
000001e0: 9d26 5abf 6f3f 663f 2206 043d 4480 3c3f
000001f0: 453d 78be 52f0 6ebf 3611 a7be 533e 36bf
00000200: 2c69 203e 2be5 ebbc cad4 ae3e 7913 cc3e
00000210: 8ab7 933e 6cff 06be 2593 d13e 7e7d d23d
00000220: 101d c6be 6f5d 013e b9d1 753e a257 16b4
00000230: 8581 c9bc ce3a 13be 9d6b f5bd d636 e7bd
00000240: 1e6e bbbd 8090 0fbe 2a26 1e3f 2058 913e
00000250: fcfa 30be 4d14 953e 36a0 ca3e 2481 2cbd
00000260: 3f0a 10bf 1cdf 9e3d 35d8 693e 02d1 a23e
00000270: e542 983e d477 583e 3428 4c3e d676 cebc
00000280: 5bc4 b83e b418 30be d354 073e 26a8 b13e
00000290: cce3 ecbd aa35 743e 8b17 213e f331 903d
000002a0: adf2 c23e ed79 393e 668a c83b 0334 aa3d
000002b0: 202b 6c3e bcde 9b3e 98d8 963e b240 793e
000002c0: a597 1a3f 6d0c f5be ace3 433f 86c5 d33c
000002d0: 5fd2 aa3d b433 a63e f7a7 e43e 9f86 c23e
000002e0: 4110 45bf 6161 df3d b103 8d3e d59a 883e
000002f0: 07c3 2a3f 11ce 08bc 8c3e 943e b8f0 d53e
00000300: 85c0 413f 8c49 a23e faa3 593f 6242 58be
00000310: a358 863e 07e8 893e c2ba f83e 9461 133e
00000320: 885f 4b3f 46ec 023e 7e4b 853f 1016 013f
00000330: f404 b2bf 3131 74bf 827c acbf 8112 e8bd
00000340: e065 673e fa88 bbbe eb14 38bd 58ce c83d
00000350: a0ce 46bd a133 b13d a24e 463e 9b3a cfbc
00000360: deca 4b3e 8752 9a3d 0757 833e 554c d53d
00000370: 4096 03bf 6eba 493d 7f02 cdbe 9908 a2be
00000380: 17a5 6dbf 41b8 903e 76ce 64be 3772 983f
00000390: b67b 003e de8d 6bbd 40f3 063f 478d a7be
000003a0: e648 9abf 37e0 03bf efa5 04be e214 973d
000003b0: 539e 643f 30f5 7bbd 51f9 78be afc8 9dbc
000003c0: 4760 523e f18c 983d ac34 0b3f ee29 053f
000003d0: 6dbd b63e 160f 873e f22b 6c3f 26a1 cfbe
000003e0: 304d d1be 2dac a03e 82eb 52bd e64f f43c
000003f0: 0dea 8fbe 1a67 9dbf 2075 ef3e cb95 a5bf
0.5333955 0.2164377 -0.6030879 0.18242465 -0.081489295 -0.28168634 -0.1991123 0.14296106
-1.1804261 -0.21938507 -0.26404938 -0.14720963 -1.2586361 -0.96551204 -0.9303962 -0.18905847
0.35460714 0.22462666 0.27087027 0.4379406 0.20916274 -0.12045828 0.40788332 -0.39727175
0.20742467 -0.13325651 0.18563809 0.22631522 0.21783693 -0.27062014 0.3139301 -0.25018388
0.51031435 -0.24300337 0.15306848 0.013986075 0.23806672 0.057199456 0.21590579 0.043971866
0.2506576 0.39609236 0.17721869 -0.048878 0.59322137 0.5759593 0.28171438 0.1772863
0.25586355 0.26893425 0.09058469 0.19556661 0.26278555 0.24506983 0.2921035 0.04139365
0.33596048 0.30500674 0.3180127 0.10662323 0.26222026 -0.22870208 -0.05077631 0.041498125
-0.38410994 0.10347371 0.5348827 -0.112750396 0.08986949 0.06494414 0.22618641 0.62673926
2.2650504 0.359165 0.5655621 0.48669106 -1.1362175 0.37728772 -0.9111172 0.249643
0.39666787 0.041999996 0.054161243 0.34501576 -0.029205296 -0.10433035 -0.0006882925 -0.12610924
0.24292967 -0.09781125 0.3310307 -0.06247639 0.2639587 0.30584857 0.19614497 -0.09534017
0.088644505 -0.23915039 0.21348055 -0.38774726 0.22467127 -0.01749544 -0.0972055 0.13611746
0.097661465 0.09781439 0.22826146 0.11728693 -0.8660139 0.27393937 0.3354511 0.09668098
-0.02817335 0.7132983 0.5928576 -0.1813249 0.526296 0.32722747 1.6998178 0.34260163
-0.8521517 0.8994054 0.03223241 0.7363322 -0.24242122 -0.9333545 -0.32630318 -0.7118885
0.1566512 -0.0287958 0.3414672 0.39858606 0.28850967 -0.13183373 0.40932575 0.10277842
-0.38694048 0.12633298 0.24005784 -1.4001719e-07 -0.024597893 -0.14377901 -0.11983416 -0.11289756
-0.091518626 -0.14019966 0.61776984 0.28387547 -0.17283243 0.2911705 0.39575356 -0.042115346
-0.56265634 0.077573985 0.22836383 0.31800085 0.29738536 0.21139461 0.19937211 -0.02520315
0.36087307 -0.17196923 0.13215952 0.346986 -0.11566886 0.23848596 0.15731637 0.07040777
0.38075772 0.18112917 0.006120014 0.08310702 0.23063326 0.3044337 0.29462123 0.24341086
0.6038764 -0.47861043 0.76519275 0.025851022 0.08340906 0.3246132 0.44659397 0.37993333
-0.76977926 0.109072454 0.2754188 0.26680627 0.6670384 -0.008349911 0.2895397 0.41785216
0.75684386 0.31696737 0.85015833 -0.21119073 0.262395 0.26934835 0.48579985 0.14392692
0.79442644 0.12785444 1.0413663 0.5042429 -1.3907762 -0.9538756 -1.3475497 -0.11331654
0.22597456 -0.36627942 -0.044941824 0.09804982 -0.048536897 0.086524256 0.19365934 -0.0252965
0.19901606 0.07535272 0.25652334 0.1041495 -0.5140114 0.04925006 -0.40040967 -0.31647184
-0.9283003 0.28265575 -0.22344384 1.1909856 0.12547192 -0.057508342 0.5271492 -0.32724974
-1.2053497 -0.51514 -0.12953924 0.0737703 0.89304084 -0.061513126 -0.24313857 -0.019260732
0.2054454 0.074487574 0.54377246 0.52017105 0.35691395 0.26378697 0.92254555 -0.40552634
-0.40879202 0.3138136 -0.05149413 0.029823255 -0.28108254 -1.2297089 0.46769047 -1.2936338

lstm.weight_hh_l0 f4 [64, 16]
00000000: 7fe9 2fbe d0d3 5a3e f706 033e 65e4 abbe
00000010: 5563 afbd 4e63 7b3d 55c4 aabe 796f 5b3e
00000020: 8504 503d 80fe acbd 1300 c13d 2e7a 11be
00000030: 1a6e 18be 0f1c 503d 0944 5c3e 9d46 dc3c
00000040: c66f 07be 61dd 30be 1990 25bd 72fc 16bd
00000050: 79a5 593d 877e 543e 7096 933b f80f ec3c
00000060: fce2 50be 9bfe 31be f16a 16be 14d5 6f3e
00000070: 9e57 03be d403 9bbd 49e4 6f3c 7a1e 82bd
00000080: 4f91 06bd 67f2 11be fd0b 203c 6a22 f53e
00000090: 987b 1bbe 10e6 b73d 8845 6f3e c872 22be
000000a0: 9cf9 2c3d 2e70 373e a0ee 623d d826 863e
000000b0: 917f bf3d ea4d 9dbe 1bb6 303c be4d b73d
000000c0: 5af3 203e 3dd2 d5bc 0123 f8bd a19d 033e
000000d0: 3abe 40be ef09 65be c319 bdbd e779 0dbe
000000e0: 577f 74be 0516 243e 0d72 8f3e 829c 1fbd
000000f0: e051 cf3d dc51 0b3e 506c 00be 7538 b63d
00000100: 52cd 033d b82e 833e 307e 6ebe 7126 91bd
00000110: 51e1 5c3e fcf4 55be 68bc cfbe eb88 f5bd
00000120: 0771 a4bd b872 a3be a031 f1bd 1c88 94be
00000130: 9a9e 56be d6bc 973d 1ced a5be 6882 213e
00000140: 936c 96bb 7e9a c73e 630a b2bd 5f8d d9bc
00000150: 6798 13be 1d5d d6bc c18f 553e 7193 1d3e
00000160: 4e59 9dbd 98ce 203e ca77 0c3d 181c 5c3e
00000170: 0d58 34be a110 013c ffaa 57be 5233 84be
00000180: afc0 e9be 1e2a 82be 20d7 763e e173 34be
00000190: f4e2 a93d f49e 98be 7ff0 7e3c 35b0 3a3e
000001a0: 21d0 953e e099 363e 4f21 843e 5878 8fbe
000001b0: 921f 51be 06ca b3be 1dd8 8d3e f24c 513d
000001c0: e57e 553e 772f eb3e ddce aa3e 62cc 853e
000001d0: cee9 acbe ecef 51be f611 b6be f776 aabd
000001e0: 1818 8ebe a27e aebd 5c6e 74be 56c9 43be
000001f0: ace2 b83e fc71 bc3e c202 c43c 119e adbe
00000200: 1ecd 653e ce16 163e 68ea e23d 7a6f 293e
00000210: 2226 8cbe 9caf 8f3e 6a5c 4abe 6475 4d3e
00000220: b296 123d 61e6 4e3e a164 153e 5b89 40bc
00000230: 4f49 05bd f5df 2dbb 281d 5d3e 9483 ec3d
00000240: 1cc0 54be 202d d1bc aa91 a0bd 9303 77bd
00000250: 8c21 15be 43f2 50be 6a3a b63c c374 71be
00000260: 7d63 3bbc c4da f3bb 05aa 3c3c e918 bbbc
00000270: a543 6d3e 6b48 5b3d 5ba2 763d a75b 1c3e
00000280: d538 0a3e a09a 6abd 2649 903e cfc6 78be
00000290: 0332 433d 7ba9 903e b8de b13e aeda dd3d
000002a0: b075 ca3b 3e57 38bd 21ce cabd 756c 993d
000002b0: a457 613e 762d bfbd 7269 3d3e 7c20 463e
000002c0: 2cba 723e ad2b d6bd 3a13 b7bd 4c7a 893e
000002d0: 484f be3d e7c5 783e bb6d 853e 2c8c aabe
000002e0: e9bd 423e 11f9 1e3e e380 6fbe 6e2e d23d
000002f0: c5d2 3abe 08a6 4ebe 1df6 273e dcb0 553e
00000300: 2971 f5bd 1eab 13be da66 08be 0f21 97be
00000310: 4b71 b53d c2a8 02be 9c5d 69be 5b72 353e
00000320: 23dc e3bd 347e 173e 737d 0b3d 0898 a1be
00000330: dd1d 9fbe d0cc bbbd 7b66 003e a63d 9dbd
00000340: afe3 61be 83dd b03d b4a4 babe 1491 e4bd
00000350: 0834 60be 04de 023e 1301 383e 175c 51be
00000360: 2f8e 77be 387b df3c b054 b4be 5cde 62be
00000370: a1f7 22be b206 0abd fc78 df3d cdfd da3d
00000380: 7ece 83be 2072 6ebd c062 89bd b719 1b3e
00000390: b87a 1ebe 0c3c 893e d17f 9d3d d4ea b33d
000003a0: 7d23 85bd 1543 2a3e 749a 0c3e 4444 943e
000003b0: 40b4 a2bc 6c83 45be e73c 2c3d d57c aa3d
000003c0: db79 42be 893d e33e 612d 0ebe ed05 6bbd
000003d0: 8250 da3d f7f1 eabd f2b3 96be 3306 96be
000003e0: 1712 1e3e 6194 233e 1d15 13be b3fc b5bd
000003f0: 2d36 b0bd 7a66 c13e c688 cc3d da32 2bbe
-0.17178915 0.21369863 0.12795626 -0.3357269 -0.08563868 0.061374 -0.33352914 0.21429242
0.05078556 -0.084469795 0.09423842 -0.14206764 -0.1488575 0.05080801 0.21510328 0.02688914
-0.13226232 -0.1727195 -0.040420625 -0.036861844 0.053136323 0.20751391 0.0045040175 0.028816208
-0.20399088 -0.1738228 -0.14689232 0.23421127 -0.12826392 -0.075690895 0.01464183 -0.06353469
-0.03285342 -0.14252625 0.009768483 0.47877818 -0.15183866 0.08979428 0.23366368 -0.15864098
0.042230234 0.17913887 0.05540335 0.2620151 0.09350503 -0.30723506 0.010785605 0.08950375
0.15717831 -0.026101226 -0.121160515 0.128531 -0.18822566 -0.2236707 -0.09233429 -0.13816033
-0.23876701 0.16024025 0.280167 -0.038967617 0.10123038 0.13605446 -0.12541318 0.08897487
0.03217823 0.2562158 -0.23290324 -0.0708741 0.21570326 -0.20894235 -0.4057343 -0.11989006
-0.08029371 -0.3192346 -0.11777043 -0.29010093 -0.20958939 0.074090645 -0.32407463 0.15772402
-0.00459058 0.38985056 -0.08693387 -0.026556669 -0.14413606 -0.026167447 0.20855619 0.15388276
-0.07683049 0.1570381 0.034293927 0.21495092 -0.17611714 0.0078775 -0.21061324 -0.25820404
-0.45654818 -0.25422758 0.24105501 -0.1762233 0.08295241 -0.29808772 0.015560268 0.1823128
0.29260352 0.17832136 0.25806662 -0.28021502 -0.204222 -0.3511507 0.27703944 0.05109877
0.20849188 0.4593465 0.3336095 0.26132494 -0.3377213 -0.20501679 -0.35560578 -0.08323472
-0.27752757 -0.08520247 -0.23870224 -0.19119772 0.36110437 0.36805713 0.023927096 -0.33909658
0.22441527 0.14657137 0.11079866 0.16546431 -0.27372843 0.28063667 -0.19761816 0.20064312
0.035788245 0.2020507 0.14589168 -0.011751498 -0.032540616 -0.0026531194 0.21593153 0.11548534
-0.20776409 -0.025534213 -0.07840283 -0.060306143 -0.14563578 -0.20404916 0.02224465 -0.23579697
-0.011437294 -0.0074418504 0.011515145 -0.022839027 0.23170336 0.05353586 0.060213428 0.15269338
0.13498242 -0.05727637 0.28180808 -0.2429459 0.047655117 0.28254303 0.34740233 0.108327255
0.00617858 -0.045005076 -0.09902597 0.0749139 0.22006088 -0.09334843 0.18497255 0.1934833
0.23703831 -0.10457549 -0.08939214 0.26851118 0.092924654 0.24294244 0.2606028 -0.33310068
0.19017757 0.15524699 -0.2338901 0.10262762 -0.18244465 -0.20180523 0.16402479 0.20868248
-0.11984474 -0.14420745 -0.13320485 -0.2951741 0.088594995 -0.12759688 -0.22789615 0.17719404
-0.11125972 0.14794236 0.034055185 -0.31561303 -0.3107747 -0.09169924 0.12539093 -0.07677774
-0.2205951 0.08636 -0.36453784 -0.11160484 -0.21894848 0.12780005 0.1796916 -0.20445286
-0.24175332 0.027280435 -0.3522086 -0.22155136 -0.15914775 -0.03369779 0.10911748 0.1069294
-0.2574348 -0.058214307 -0.06708288 0.15146528 -0.15476501 0.26803625 0.07690395 0.08785024
-0.065009095 0.16627152 0.13730794 0.28958333 -0.01986134 -0.19288415 0.04205027 0.08324591
-0.18991797 0.44382885 -0.13884498 -0.0573787 0.10659887 -0.114719324 -0.29434162 -0.29301605
0.15436588 0.15974571 -0.14363523 -0.08886089 -0.08604083 0.37773496 0.09987025 -0.16718617

lstm.bias_ih_l0 f4 [64]
00000000: 3bd2 1a3c 0649 133f 86bf ac3e 461b a83e
00000010: 2c68 39bf 65f4 0bbe 6915 5d3e 0dd8 d4be
00000020: 8a19 25bd b664 0b3f 9264 123f d7d6 883e
00000030: c719 dbbc 527e e2bd 0681 483e 1353 293d
00000040: 3b20 b93e 01d9 923e 1218 383f 3d27 833e
00000050: 302e 45be b616 d63e c13b 513e 25ff 11be
00000060: 4f94 2bbd 04a7 c83e d810 1a3f fc21 533e
00000070: 173f d0bc eaad 633e 0abd 7d3d 2e87 12bc
00000080: 9d62 96be ff5c 76bf a207 0e3f c776 52be
00000090: a39e 493e d96c dbbd 65a7 4cbb 8d1b 3a3e
000000a0: 3466 d53e ac4a 96be 0eb6 fb3f 8f4a f93e
000000b0: f44d 41bf 90c6 b8bf 7e0e 6c3f 4105 143f
000000c0: e647 943e 9cd6 883f 2134 993e 8ffd a8be
000000d0: 95d1 50bf 0bc2 1e3e ca58 803c 0fcb 813c
000000e0: 0a89 d73e e966 f5bd 486a 3a3f 9fec 85be
000000f0: 9643 983e 36f2 ad3d 95b4 ca3e 6b26 463e
0.009449537 0.575333 0.3373987 0.32833308 -0.7242458 -0.13667448 0.21590199 -0.41571084
-0.04030756 0.5445055 0.5718471 0.2672641 -0.02674569 -0.1105925 0.19580469 0.04133899
0.36157402 0.28681186 0.7191173 0.25615874 -0.192559 0.41814202 0.2043295 -0.14257486
-0.041889485 0.39189923 0.6018195 0.20618433 -0.025420709 0.22234312 0.06194786 -0.008943362
-0.2937211 -0.9623565 0.55480397 -0.20553122 0.19689421 -0.107141204 -0.0031227705 0.18174572
0.41679537 -0.29353845 1.9664934 0.48689696 -0.7550957 -1.4435596 0.92209613 0.57820517
0.28961104 1.0690494 0.29922584 -0.3300595 -0.81569797 0.15503709 0.015667338 0.015843896
0.4209674 -0.11982519 0.7281842 -0.2615709 0.29739064 0.08493464 0.39590898 0.19350593

lstm.bias_hh_l0 f4 [64]
00000000: adbd b6bc e1b8 f23e 1071 003f 7e88 b43e
00000010: cdcb c0be 161f 99be e6cf 753e d21f 25bf
00000020: 6cba b1bd ad93 063f 7c47 af3e ddd0 e7bc
00000030: e525 a93d 790a 39be 7c4a cc3e 3869 943d
00000040: 53e4 ba3e cab8 9ebd 7e01 113f 7646 cd3d
00000050: 432e e9bd ba65 ce3e 97e2 5f3e 35e5 a1be
00000060: 6694 cfbd 509c 883e 6cbf 403e 5493 02bd
00000070: f887 2bbe cec6 8d3d 144d c2bd 6efa 7cbd
00000080: f6f0 6fbd ef68 04bf 92cf 353f e595 bbbe
00000090: 30c7 d03e 7e21 4cbe f99a ec3e e063 4b3e
000000a0: 905b 0f3f 10ba c8be 2573 0d40 59d9 da3e
000000b0: 057a 2ebf fc61 9bbf 400e 8b3f 95cc f73e
000000c0: 3b7d 843e f0e8 9e3f 1096 8b3e 02db 5abd
000000d0: 7e68 3bbf d637 94bd 83a1 8dbe 1b66 38be
000000e0: 9709 803e d58d 92be dff2 f03e d7f5 7abe
000000f0: 9089 883e f7af ac3d 748f 153f 63fd 0d3d
-0.022307241 0.47406676 0.5017252 0.35260385 -0.37655488 -0.2990653 0.24005088 -0.6450168
-0.08678135 0.52569085 0.34234226 -0.028297836 0.08259181 -0.18070401 0.39900577 0.072466314
0.36502323 -0.077500895 0.566429 0.10023205 -0.11385777 0.40311986 0.21863781 -0.31620184
-0.10135727 0.26681757 0.18823022 -0.031878784 -0.16751087 0.069226846 -0.09487358 -0.061762266
-0.058579408 -0.51722616 0.7101985 -0.36637798 0.40776968 -0.19934651 0.46211985 0.19862318
0.5599909 -0.39204454 2.2101529 0.42743948 -0.6815494 -1.2139277 1.0863724 0.4839827
0.25876793 1.2414837 0.27262926 -0.05343152 -0.7320632 -0.07237212 -0.27662286 -0.180077
0.25007316 -0.28623834 0.47060296 -0.24507843 0.26667452 0.08432 0.5842202 0.034665477

lstm.weight_ih_l1 f4 [64, 16]
00000000: 0aa9 da3e 14a3 85be 8c70 68be 5390 1abe
00000010: 90c1 a23d a5d8 a43c 85dd 86bc fd60 ecbd
00000020: 2925 253d 92fa a7be c29d 903d 27a6 743e
00000030: ffc6 373e d5eb 7ebe 1a99 7b3e 7b6c e53e
00000040: 2a9e 3f3f 0f5d 8d3f c82d 5bbf 6a92 af3e
00000050: 23bf be3f 6208 153f 16df 033f dd2b 5cbf
00000060: 74fb 15bf b0ad 1c3f ff2e 51bf 0be9 14bf
00000070: e26c 7b3f ae59 623d 83ff a9bf 20e9 92bf
00000080: 8f8a f93c 7178 eebd eabb 763e e296 5bbe
00000090: 4af3 82be 43e5 9dbd dfa0 483d fd14 b53d
000000a0: 3950 1f3e 733b 763c d64a 993e 8f27 f43e
000000b0: f2eb a23e 1799 743d a2ef 493e 2e6e e93d
000000c0: b663 c53e 30ba 223e 3837 6abe 1b25 c33c
000000d0: 2f0c 963f 64fb a4bd f85d 02be 67c2 b1be
000000e0: bb8b 963e d26d 6c3f 9083 82bf e023 18bf
000000f0: 12d8 1b3f 008d 2a3d da70 a5be 1a7c eebe
00000100: 80fa fabd 8c6b d83d 75e4 c43d c275 f1bc
00000110: 06e4 adbd cde3 de3c 9242 11be 60f8 3d3e
00000120: f82e ee3d 50ee 88bd d411 f7bd 15e7 433e
00000130: e7dd 803e a2eb 633d 6443 63be b554 48bd
00000140: cc3a 523b 574c ae3e f3d6 12be 7816 fc3d
00000150: df57 403f dc21 413e 6a21 943e 3284 6cbe
00000160: bb04 c8be b2ba 243f ada9 e5be 3a67 18be
00000170: cc6d 1a3e e0be 1bbf b171 90be 6ff5 2e3d
00000180: 2439 823d 93db a6be 8203 3c3f e707 3cbe
00000190: 605f 2dbe 6da0 003e cc29 3cbd 4578 b53e
000001a0: 2eae 433c 9279 a6be 2124 333e 0531 033e
000001b0: 67a9 c8be e61b 5e3e 49bd 843e b4a9 0f3c
000001c0: a58a 5abe b0de 3cbe 287e 58be 3b3f 103d
000001d0: be5b e3bd a61e 8fbc e155 8abe 3a05 573d
000001e0: 229d 17be e165 fb3d 0666 123e 0f66 d4bd
000001f0: 9f98 d4bc 51f4 783e 3205 7a3d a90f 5abe
00000200: 19fd 6e3e abc7 8cbe c1c2 8c3e dbaf 843d
00000210: ac58 d0ba 6313 ef3e b6fa a5be 81e4 64be
00000220: 14c3 a13e eb06 623e 29dc 993e 1ae3 8f3e
00000230: 0675 843d d7bf 813e 55c6 d93e 4280 373e
00000240: d451 003f 3fde 573f 5bce 00bf d2d1 123f
00000250: 2818 153f 82c2 51be 9e45 f03e 69e4 8cbe
00000260: 810b 1cbf 5d72 073f cbb8 3dbf f316 00be
00000270: 33f3 0f3f 7879 e8be e9d3 1cbf 2e3a d0be
00000280: e4dd d0be 73a9 393f dd77 fabe fbde 47be
00000290: 0340 683f 5c30 d9be eaca 203f 7e5f 5abe
000002a0: 297c 2fbf d74d 203f e257 d2be e103 afbe
000002b0: 94ac 1f3e 9ae2 a6be b73b 8cbf 03f5 5ebf
000002c0: d52e 6abe ce75 07be 5f16 5fbd 7375 ea3d
000002d0: 0026 1e3e a391 123e 3054 653e a0f2 06bf
000002e0: 4242 aa3d c6db 0b3d 6f59 cdbe bb8a b3bd
000002f0: 3e44 d33c 85ab b6bc a073 463d e782 edbc
00000300: a5bf 463e b3e6 19be 3921 71be edfe 363e
00000310: b875 a93e 1d58 963d ba03 33be 5aef a0be
00000320: 71b6 73be a698 0dbd d144 f53c ad77 8dbe
00000330: bce5 fdbd 0a0f 9ebe e469 f63d c600 323e
00000340: c4e8 f2bd 099e 9b3e 0854 79be 5fc2 3bbc
00000350: c28f 3d3f ac71 64bd d14b 3a3f 21c6 a5be
00000360: 780f 07bf 263b cb3e a59e c4bd d01b c9bd
00000370: 99b2 3e3e c953 08bf d59e 4dbe 22cd 9ebd
00000380: 2486 7fbd ffd1 0ebf 20a1 113f 6504 c53d
00000390: b74e 8abe 2a66 d8bd a42b debb 9d30 2a3e
000003a0: 4c85 0ebe b415 583d 4f8e 113e 581e 9d3e
000003b0: 8154 aabe 76f0 4c3e 23f6 563e a21c b93e
000003c0: 6267 133f d3ae c33e f9f6 973d a200 483f
000003d0: f18e 2a3f b5cf 3a3f 7a6c 573e 404e 0fbe
000003e0: 2ca4 90bf d97b d83f c905 65bf 816b 30bd
000003f0: 83f3 993f 05a8 12be 1c39 91be 8730 d33b
0.42707092 -0.2610098 -0.22699183 -0.15094118 0.07947075 0.020122835 -0.01646305 -0.115419365
0.04031864 -0.32808357 0.0706134 0.23891507 0.17947005 -0.2489465 0.24570122 0.44809327
0.74850714 1.1044024 -0.8561673 0.34291393 1.490208 0.58215916 0.5151228 -0.8600443
-0.5858681 0.61202526 -0.81712335 -0.58168095 0.98213017 0.055261306 -1.3281101 -1.1477394
0.030461578 -0.11644066 0.24095121 -0.21444276 -0.2557624 -0.07709744 0.048981544 0.08841894
0.15557946 0.015028822 0.29939908 0.4768643 0.31820637 0.05971631 0.19720319 0.11397968
0.38552636 0.15891337 -0.22872627 0.023821404 1.1722468 -0.080557615 -0.12731159 -0.3471863
0.2940348 0.9235507 -1.01964 -0.5942974 0.6087657 0.041638374 -0.3231266 -0.46579057
-0.1225481 0.10567388 0.09613887 -0.029475097 -0.08490758 0.027208233 -0.14185551 0.18551779
0.11630052 -0.066860795 -0.12063947 0.1913112 0.25169298 0.05564464 -0.22193676 -0.048908908
0.0032078503 0.34042618 -0.14339809 0.12308973 0.7513408 0.18860573 0.28931743 -0.23097304
-0.3906611 0.64347374 -0.44856015 -0.14883128 0.15080947 -0.6083813 -0.2821174 0.042714532
0.06358555 -0.32589397 0.7344285 -0.1836239 -0.16930914 0.12561198 -0.045938298 0.3544332
0.011943383 -0.32514626 0.17494251 0.12811668 -0.39191744 0.2169033 0.25925663 0.008768488
-0.21341951 -0.18444324 -0.21141875 0.03521655 -0.11101483 -0.017470669 -0.27018645 0.05249522
-0.14806035 0.12275291 0.14296731 -0.10371029 -0.025951682 0.2431195 0.06104011 -0.21295036
0.23338737 -0.27496085 0.27492335 0.06478854 -0.0015895567 0.46694478 -0.3241784 -0.22352792
0.31594145 0.22072951 0.3005078 0.28102952 0.06467633 0.25341675 0.42534128 0.1792002
0.5012486 0.84323496 -0.50314873 0.5735141 0.58239985 -0.20484355 0.46928114 -0.27518013
-0.60955054 0.5290888 -0.74110097 -0.12508754 0.5623047 -0.45405173 -0.6126085 -0.40669388
-0.4079429 0.72524184 -0.48919573 -0.19518654 0.90722674 -0.42419708 0.6280962 -0.2132549
-0.6854883 0.62618774 -0.41082674 -0.34182647 0.15593177 -0.32594758 -1.0955724 -0.8709261
-0.22869428 -0.13228533 -0.054464694 0.11448183 0.15444183 0.14313368 0.22395396 -0.52713966
0.08313419 0.03414514 -0.40107295 -0.08766695 0.025789376 -0.022298584 0.048450112 -0.028993083
0.19409044 -0.15029411 -0.2354783 0.17870684 0.33097625 0.07341025 -0.1748189 -0.3143261
-0.23800065 -0.034569405 0.02994004 -0.27630368 -0.12397334 -0.3087085 0.12031916 0.17383108
-0.11860803 0.3039401 -0.24348462 -0.011459916 0.7404748 -0.05577247 0.72771937 -0.32377723
-0.5275798 0.39693564 -0.096005715 -0.09819758 0.18622817 -0.53252846 -0.20080121 -0.0775397
-0.062383786 -0.5578918 0.5688648 0.09619979 -0.2701318 -0.10566361 -0.0067801047 0.16620107
-0.13918036 0.052755073 0.14214443 0.30687213 -0.33267596 0.20013604 0.20992331 0.36154658
0.57579625 0.38219318 0.07420153 0.78125966 0.6662436 0.72973186 0.21037474 -0.13994694
-1.1300101 1.6912795 -0.8946195 -0.043071274 1.2027439 -0.14321907 -0.28363883 0.006444994

lstm.weight_hh_l1 f4 [64, 16]
00000000: 22ad 1ebe 4178 153e 2314 5cbe 6b29 2c3d
00000010: 5978 523e e114 b7bd 3695 2a3e d547 edbd
00000020: 19f2 17be bb57 c4be b7cd a7be d9cb 62bd
00000030: 18a8 66be 6350 8dbe fb66 4fbe c837 ae3e
00000040: 9276 45bd 426c 78be 28c1 c73d 6c6d babe
00000050: 9129 743e 485b 36bd d181 86be 5799 85bd
00000060: ff95 bc3d 661b 1dbe 3df2 ffbb 8b07 a73e
00000070: 886a ce3e 094c 9b3d cf6d 563d 021d c8be
00000080: a69a aa3d 2755 823e 265b ccbd 48fd 11bd
00000090: 51c2 c23c 8098 c7bd afb9 513e 15af 363e
000000a0: cb58 2cbe 7616 c43e 4057 923d 8892 203d
000000b0: 3909 abbd 8c11 b13e 9ac2 e13d 7875 1e3e
000000c0: d8ee 953e d404 6dbf 20f8 41bf 5a04 fbbe
000000d0: b2d3 233e a249 babe 0f46 26be e25d 16be
000000e0: 2181 303e 9331 7ebf df97 6abf 8e1d 05bf
000000f0: 29cd 403e e6c2 3abf 702c e7bd d7b9 92bf
00000100: 2cf2 87bd 52ea 57be 4288 61be a2f0 8a3d
00000110: 1b06 58be 6c56 313e 4307 393e 4e6d 903d
00000120: 2f15 f2bd fd50 a83d 0653 86bd da56 483e
00000130: 18a1 3bbe f9dc 92bd d83e 4abc e825 38be
00000140: 3d99 443e 1841 203e ad9c 25be 7762 0abe
00000150: 6995 4b3c c405 48be 3c2f 1e3e 1671 bd3d
00000160: d807 223e 4ddd aabe fe26 643b 114b bdbd
00000170: daf2 873e e3fb 08be ba7a 63bd 1786 47bd
00000180: 3391 cebd c4b5 09bd ea2f 8dbd 7374 233e
00000190: 83e2 4a3e ee29 a0bd a015 c73d deae 643e
000001a0: 4435 de3d eff8 e13d 79f2 83be 5cc8 ffbc
000001b0: 9996 54be 7ca6 133e ae50 0e3e 16b2 3e3e
000001c0: e028 b63d af1e 7fbe 51a1 8cbe f4c4 173d
000001d0: ad7c 92bd c838 403e d9c1 853e 00c2 91bc
000001e0: cea6 e73d ab9f 4bbc 7dfe 2fbe 6c66 09be
000001f0: c323 8a3d 601f 453e b9d3 d43d 5004 3ebe
00000200: 8fc5 623e 18b8 75bc 7a14 acbe de4f ccbd
00000210: d05d 573e 59c8 0abd 0dcf 86be e547 0bbd
00000220: 0920 813e 2e38 d3be aea3 02bf e373 52bd
00000230: 8d02 cbbd a722 80be 04fe 9bbe 9e0b 50be
00000240: aa60 31be 5736 0abe c0c9 b2bc 7fa2 543e
00000250: 5515 0abe f517 f2bd 5b69 d1be a20e b83c
00000260: 7686 593c ab64 2dbd 8b0c 493e d824 873e
00000270: 2c3e e83b b116 a7bd b7d6 723d a299 a93d
00000280: 9f5a fabd bbd6 1a3e cce4 d1be 3e23 663e
00000290: 306d 3d3e c051 aabd 1e69 93be 2af5 f8bd
000002a0: 04b7 c4bd c352 72bd 9da4 c13d b3c0 c2bd
000002b0: ef8c 3ebd f82b b43d b3d2 9bbe e129 f93e
000002c0: 77fe abbc 6bb5 69be 1b02 03be e9a3 f3bd
000002d0: f520 f53c 8666 b83d b38b 27be 7675 183e
000002e0: 6e26 15be c9bd a1bc b540 e6bc 7146 a7bc
000002f0: 6d1c 6a3e b84f 75be add9 55be c700 a9be
00000300: c428 893e 3dc1 983d 2ab0 4bbe 0659 cf3d
00000310: 0fed 393e 6269 c13d dd95 13be 2dc5 913d
00000320: 698e 5b3e 6f64 273e 608a dabd fe73 ab3d
00000330: fd3a 28bd 5d81 1a3d 02cc eabc d67e 073d
00000340: 073a 91be d667 5b3e 2b6a a33e f544 913d
00000350: ac38 303e 3b5d 98bd d97b 47bd 2b72 88be
00000360: 455b 6c3d fbd2 363e daab 633e 615c 15be
00000370: 6121 453e ca81 2e3e 2eac 0fbe f9fc db3e
00000380: cb0e 7a3e 8cbc bb3d 35eb d93d 25a7 4f3e
00000390: 77ae 1a3e e716 aebd f194 b73d 2a54 ac3d
000003a0: ff35 d8bb 271c f2bd c44a 99be e642 73be
000003b0: 4ada 083e fc05 fc3d 34ec 1b3d 2df5 343e
000003c0: a843 603e 42c6 13bf cd13 c8be c8b1 3ebd
000003d0: e833 173e 7c72 5dbe 769c 5e3d d70d 9fbe
000003e0: 3e7a a23d fe35 41bf 8628 05bf 0f58 03bf
000003f0: 0062 0bbe 4efd 1fbf 4302 0abd b5cb 07bf
-0.15495732 0.14596654 -0.21492057 0.042031687 0.20553721 -0.08939529 0.16658482 -0.115859665
-0.14838447 -0.38348183 -0.32774135 -0.055370186 -0.2252506 -0.27600393 -0.20254128 0.34026933
-0.04820878 -0.24260047 0.097536385 -0.36411607 0.23843981 -0.044520646 -0.26270917 -0.06523388
0.09208297 -0.15342483 -0.0078108595 0.32622942 0.40315652 0.07582862 0.052350815 -0.3908463
0.08330278 0.2545559 -0.09978323 -0.03564194 0.023774298 -0.09745884 0.20480989 0.17840226
-0.16830747 0.38298386 0.07145548 0.039202243 -0.083513685 0.345837 0.110234454 0.15474498
0.29283786 -0.9258549 -0.75769234 -0.49026757 0.15998724 -0.36384302 -0.16237663 -0.14684251
0.17236759 -0.99294394 -0.91637987 -0.5199822 0.18828262 -0.7295364 -0.11287773 -1.1462964
-0.066379875 -0.2108548 -0.22024634 0.06784178 -0.21096079 0.17318124 0.18069176 0.07052098
-0.11820447 0.08218572 -0.06558804 0.19564381 -0.18323171 -0.071710534 -0.012344085 -0.1798321
0.19199081 0.15649831 -0.16173048 -0.13514124 0.012425759 -0.1953345 0.15447706 0.09250085
0.15823305 -0.33371964 0.003481328 -0.092428334 0.2655247 -0.13377337 -0.055536963 -0.048711862
-0.10086288 -0.03362061 -0.068939045 0.1596239 0.1981297 -0.078204975 0.097209215 0.22332332
0.10850003 0.110338084 -0.2577093 -0.031223468 -0.20760573 0.14418977 0.13897964 0.18622622
0.08894515 -0.24914049 -0.27466825 0.037053064 -0.07152686 0.1877166 0.26124457 -0.017792702
0.11311112 -0.0124282045 -0.17186923 -0.13417977 0.06745102 0.1925025 0.103919454 -0.18556333
0.22145675 -0.014997505 -0.33609372 -0.09976171 0.2103188 -0.033882473 -0.26329842 -0.03400411
0.25219753 -0.412538 -0.51031005 -0.05138005 -0.09912596 -0.25026438 -0.30467236 -0.20316932
-0.1732203 -0.13497292 -0.021824718 0.20765112 -0.134847 -0.11820976 -0.40900692 0.022467915
0.013276687 -0.042332333 0.19633691 0.26395297 0.0070874896 -0.08158625 0.0592868 0.08281256
-0.12224316 0.15120976 -0.4099487 0.22474381 0.18498683 -0.08316374 -0.28791136 -0.12156136
-0.0960522 -0.05916096 0.094552256 -0.09509411 -0.046521123 0.08797449 -0.30434188 0.48664764
-0.020995362 -0.22823112 -0.12793772 -0.11896498 0.029922942 0.0900393 -0.16361885 0.14888558
-0.14565441 -0.019743817 -0.028107027 -0.020419331 0.22862406 -0.23956192 -0.20883818 -0.33008406
0.26788914 0.07458732 -0.1989142 0.10124402 0.18156837 0.09443928 -0.14412637 0.071176864
0.21441044 0.16346906 -0.10670924 0.08371733 -0.04107188 0.037721027 -0.028661732 0.033079945
-0.28364584 0.21426329 0.31916937 0.07093231 0.17209119 -0.07439657 -0.048702095 -0.26649603
0.05770423 0.1785392 0.22233525 -0.14586021 0.19251014 0.17041698 -0.14030525 0.4296644
0.24419706 0.09166822 0.10640565 0.20278604 0.15105616 -0.08500462 0.08963955 0.084144905
-0.0065982337 -0.11821776 -0.29939854 -0.23755988 0.1336452 0.12305829 0.038067058 0.17671652
0.21900809 -0.5772439 -0.39077607 -0.046556264 0.14765894 -0.21625704 0.05434843 -0.31065246
0.07933472 -0.7547301 -0.5201496 -0.5130624 -0.13611603 -0.6249589 -0.033693563 -0.5304521

lstm.bias_ih_l1 f4 [64]
00000000: 5d34 993d 0519 e03e b12c e53e 5dcb 9e3e
00000010: 9403 e53d 10ce 213f 55ba f53e 1866 673e
00000020: 6301 a7be de30 3e3f 12dc 7e3f 1013 9d3e
00000030: 6837 773e 7a05 943f 1e4d 4d3d 2379 2e3f
00000040: 5c47 4ebd 3190 0e3e ef23 963e dd2d 88be
00000050: ad70 5a3d 0fa4 a03c c1d9 11be 8a28 f2bd
00000060: e1e9 423e 23c6 d23e 9520 513f f552 63be
00000070: 5a92 4c3e 6cb7 303e 92f0 b63e a667 3f3f
00000080: 1502 263e f52c 983f f571 fb3f 869a 3b3f
00000090: 86d5 15be e548 173f 069b 66bb 6ea5 80be
000000a0: af55 db3d c6cc ae3f 57ba 843f 4368 683e
000000b0: b217 92be 64c6 743f b8a7 a33e c1e9 073f
000000c0: c225 b43d 852d 6c3f acbe c43e 2ded 6a3f
000000d0: 8f47 763b d48e bc3e 6232 673e 721a 5dbe
000000e0: 28c8 093e ff09 843f 353b aa3f 8431 0f3f
000000f0: 50c3 b33d 89a8 bb3f a204 be3c c3eb 9f3f
0.07480691 0.43769088 0.4476066 0.3101453 0.11182323 0.6320505 0.47993723 0.2259754
-0.32618245 0.74293315 0.9955455 0.30678606 0.2414223 1.1564171 0.050122373 0.6815359
-0.050361022 0.13922192 0.2932429 -0.2659749 0.053330112 0.01960948 -0.14243223 -0.118241385
0.1903453 0.4116679 0.8169034 -0.22199614 0.19977704 0.1725747 0.35730416 0.7476753
0.16211732 1.188872 1.9644152 0.7328266 -0.14632234 0.59095603 -0.0035187616 -0.25126213
0.10709702 1.3656242 1.0369366 0.22696023 -0.28533703 0.9561522 0.31963897 0.53091055
0.08796264 0.9225696 0.3842672 0.9176815 0.0037579273 0.3682772 0.22577813 -0.2159212
0.1345526 1.031555 1.3299319 0.5593493 0.08777487 1.4660808 0.023195568 1.2493824

lstm.bias_hh_l1 f4 [64]
00000000: 3d4c a33d 1647 113f 3fa6 f03d 40c6 b93c
00000010: 0197 e6bd 2f29 073f e406 503c 0494 19be
00000020: f3b7 98be ca92 633f 6baf 9a3f b262 793e
00000030: 83ae b73d e74e 853f 10dd db3d ab77 403f
00000040: 4de6 823c 2314 bfbd f8b1 c13e 1063 82be
00000050: b14a 6c3c 79e0 aebc 255f 3c3e 6b48 023d
00000060: 6e31 a83d 972e f73e 63c2 443f fb53 86be
00000070: f703 993e 2a8d 0d3c 3759 653e 0efc 0d3f
00000080: 2f06 9dbe 4167 9a3f 1bc7 0d40 71d8 ee3e
00000090: e54f 81be 2495 d63e c840 2d3e a891 033e
000000a0: b5d9 38be 5867 b93f b67b 5f3f cb24 4d3e
000000b0: c118 94bd 487f 783f 6d05 a43e 24f3 4b3f
000000c0: 6544 7fbd cec4 9e3f a86c c43e 54fd 613f
000000d0: 03a7 5fbe 3a31 36bd b1d3 d03e 0c03 28be
000000e0: d72b 603e ae3f 813f efdd ae3f 095f 913e
000000f0: 60e2 01bd 283e a93f b6be 993e 6df0 813f
0.07973526 0.56749094 0.11750459 0.02267754 -0.112592705 0.52797216 0.012696955 -0.1499787
-0.29827842 0.8889586 1.2084783 0.24354056 0.08968832 1.0414704 0.10735524 0.751826
0.015978957 -0.09330013 0.37831092 -0.25466204 0.014422105 -0.021347271 0.1839567 0.031807344
0.08212553 0.48277733 0.7685911 -0.26235947 0.29885837 0.008639613 0.22397314 0.5546273
-0.3066878 1.206276 2.2152774 0.46649507 -0.25256267 0.4191066 0.16919243 0.12848532
-0.18051799 1.4484663 0.8729814 0.20033567 -0.07231284 0.97069216 0.3203539 0.7966788
-0.062321085 1.240381 0.38364148 0.88277173 -0.21841054 -0.04448054 0.40786508 -0.16407412
0.21891724 1.0097558 1.3661479 0.2839282 -0.03171003 1.3222094 0.30028313 1.0151497

fc.weight f4 [1, 16]
00000000: 5ba0 b9bf f442 0341 340f a9bf 2d75 cf40
00000010: be50 693e d012 a540 f0b7 0dc0 ad2f 00bf
00000020: 48a3 e2bf 834b ec40 d4e7 0f41 1753 e93f
00000030: 3ed2 593f a4c6 de40 e1df debf 9f99 0f41
-1.4502062 8.203846 -1.3207765 6.4830537 0.22784707 5.1585464 -2.2143517 -0.5007275
-1.770608 7.3842177 8.994099 1.8228482 0.8508643 6.961748 -1.7412072 8.975005
