logs/od600_lstm_test-b8/weights_best.tar (torch, 20571 bytes, 11 tensors)

pre_fc.weight f4 [16, 11]
000000 7c 70 a9 be 00 5d d3 3e 68 f0 4e be 0f 02 19 3e
       -0.3309363 0.4128189 -0.20208895 0.14942192
000010 31 bf c5 be da 63 80 3f af ca a5 3d 9b f5 87 be
       -0.3862243 1.0030472 0.080952995 -0.2655457
000020 7e ca 0e be f7 ee ae 3e ae b4 85 be 60 eb 01 be
       -0.13944432 0.3416669 -0.2611441 -0.12687445
000030 9d e6 1a bf 67 44 31 be e3 86 5b be cf 6e a2 bc
       -0.6050814 -0.1731125 -0.21438174 -0.019828228
000040 40 40 37 3e e0 16 ec 3e 87 09 61 be da 87 b8 3d
       0.17895603 0.46111202 -0.2197629 0.09010287
000050 f9 8e 0d 3f f1 16 0b 3e df 54 8c bf 54 c1 9e be
       0.55296284 0.1358297 -1.0963401 -0.31006873
000060 08 97 b8 be 88 b5 07 3f ce d9 9d be 70 91 62 bf
       -0.36052728 0.5301137 -0.30830234 -0.8850317
000070 4c 3e 76 be 84 f2 50 3e bd 89 9b 3e c0 a2 b6 3f
       -0.24047202 0.20405012 0.30378523 1.4268417
000080 a6 6b 1a 40 1b 9d 3c bf e0 57 c2 3e 84 35 5c 3f
       2.4128203 -0.73677224 0.37957668 0.8601916
000090 c3 98 32 bf 2a 8a ba bf 4c 20 a8 bf c9 47 5f be
       -0.69764346 -1.4573414 -1.3134856 -0.21804728
0000a0 f1 2a a6 bf b6 38 f5 3d 8e 7b b1 3c 0b 1f 02 bf
       -1.2981855 0.119737074 0.02166536 -0.5082862
0000b0 1f 3e 09 bf 48 89 e8 bd 73 c8 d6 3f 80 54 16 3e
       -0.53610414 -0.11354309 1.6779922 0.14680672
0000c0 78 3c 85 bf e5 f9 2e bd 94 61 39 be dd 32 90 3e
       -1.0409079 -0.042718787 -0.1810363 0.28163806
0000d0 cf 42 22 3f e3 f0 e0 3f cf c2 52 be 15 7a 21 bf
       0.6338319 1.7573513 -0.20582126 -0.6307691
0000e0 37 45 36 bf e4 e9 00 3f 68 6d 12 3f a8 90 39 3e
       -0.71199363 0.5035689 0.5719819 0.18121588
0000f0 91 37 9a 3e 7a ee 9b 3e 9f 21 09 3f 3e 95 88 bc
       0.3012052 0.3045538 0.53566927 -0.016672727
000100 25 8c 8c 3e 16 7a d1 3d 01 53 d2 be 03 97 78 bf
       0.27450672 0.10228364 -0.41078952 -0.97105426
000110 a6 bf 76 be 78 90 9c be 21 aa 9a 3e d0 73 2e 3c
       -0.24096546 -0.3057897 0.30207923 0.010647729
000120 d9 61 cd 3c bb f1 6b 3e 91 0e 9a 3d 8b 9c 95 3f
       0.025071071 0.23041432 0.075223096 1.1688398
000130 1f 1d 91 3f cd 9f c5 be c3 f8 ab bd 4b 34 80 3f
       1.1337012 -0.3859848 -0.08397057 1.0015959
000140 3e 6d 4e bd 09 50 0a bf 65 bd 4e be bc 19 1c 3d
       -0.05039715 -0.54028374 -0.20189436 0.03811048
000150 7b fa 2b 3e db 6d 5d bd 92 3b 5d bf 87 11 89 3f
       0.1679477 -0.054059844 -0.8641902 1.0708474
000160 99 f3 c2 3d 4d 58 e9 3d f5 68 c0 be 0d 76 f1 3c
       0.09519119 0.11393795 -0.37580076 0.029475236
000170 3e 86 15 3f 63 0e da bb 18 29 0b 3e 83 a3 b4 bc
       0.5840796 -0.006654547 0.13589895 -0.022050625
000180 ac 3a 31 3e 5d b3 a1 3f d8 cf e0 3f 51 88 b3 3e
       0.17307538 1.2632862 1.7563429 0.3506494
000190 2a b7 96 3f 12 55 8e 3d cd 4b 0f bf 3e e1 c7 3e
       1.1774647 0.069498196 -0.5597504 0.39039034
0001a0 03 a4 81 bc 9d d0 3d bd 61 4c 67 be 25 9f 52 3e
       -0.015825277 -0.046341527 -0.2258773 0.20568521
0001b0 be 4f 0d 3f 74 76 cc bd f1 5c ba 3d a1 09 22 bf
       0.551998 -0.09983531 0.090997584 -0.6329594
0001c0 9d c4 8d 3f 28 ac 30 3e bb 71 55 bf 8e fc 0a 3f
       1.1075627 0.17253172 -0.83376664 0.5429162
0001d0 fa 67 05 bf ab 96 39 3e 0a e4 18 3f 6a 42 a9 3f
       -0.5211178 0.18123882 0.5972296 1.3223393
0001e0 e4 71 08 bf 6c 5a 2a 3f 1d 03 52 bc ba f1 88 3f
       -0.53298783 0.6654422 -0.012818125 1.0698769
0001f0 15 b9 f7 3e d1 09 9c bf d5 8d 1d be 22 c9 94 bd
       0.48383394 -1.2190496 -0.15386136 -0.072649255
000200 8f 4c d8 3e 33 5c f1 3e 9f ba 86 bd 43 41 4b 3f
       0.4224591 0.47140655 -0.06578564 0.79396456
000210 f0 7b 0e be 8b 55 e3 be 99 62 1e 3e 7c d7 b3 be
       -0.13914466 -0.44401202 0.154673 -0.3512534
000220 52 32 14 3e 80 96 43 be 56 52 4d bc 60 7e 9e bd
       0.1447232 -0.1910038 -0.012531837 -0.07738948
000230 3e 3b 42 3e c5 8b e1 3d f0 1c 87 3e 32 dc 8f 3f
       0.18967912 0.11012987 0.26389265 1.1239073
000240 87 45 e4 bd dc cb a5 bf 1e 5d db 3a e1 06 9e 3e
       -0.11146074 -1.2952838 0.0016736125 0.30864623
000250 da 2f e5 3e 65 27 63 3c 8f 92 ef be 49 9f ad bd
       0.4476307 0.013864373 -0.46791503 -0.08477647
000260 c6 a5 c2 bd 86 34 bc 3e 04 09 8b 3e 88 6b b6 3d
       -0.09504275 0.36758822 0.27155316 0.08907229
000270 6d 10 28 bf 04 8f 4a 3d 1e 76 cd be bd bd 2a bf
       -0.65650064 0.049452797 -0.4012918 -0.6669577
000280 dc 57 b6 3d 40 38 91 3f 8c 99 42 bd 17 ba 52 be
       0.089034766 1.1345291 -0.047509715 -0.205788
000290 67 18 42 3f 2e e3 e3 3e 12 9a 6e 3d bb f2 04 3f
       0.75818485 0.44509262 0.0582524 0.5193288
0002a0 ef d4 f4 3d ae e5 93 3e f8 0d 59 bb 5d 4c c0 be
       0.11954676 0.2888617 -0.0033119898 -0.3755826
0002b0 0a d1 8e be fd 84 01 bd ba 60 49 bf f8 5e 41 3d
       -0.2789386 -0.031620968 -0.7866322 0.04720971

pre_fc.bias f4 [16]
000000 bf e6 4e be 89 ae 0a be 3f b1 e4 be 63 d1 de bd
       -0.2020521 -0.13543142 -0.44666478 -0.10879781
000010 03 4a df be a2 ed cc be 4f 6b ab be 2e cb 01 bf
       -0.43611154 -0.4002505 -0.33480307 -0.5070065
000020 af 84 ac be fc 5d 17 be a8 cd 37 bf ce 5d a3 bd
       -0.3369498 -0.14781946 -0.7179818 -0.07976876
000030 38 63 01 bc 43 27 21 bf a5 0b 59 bf 41 b0 98 be
       -0.007897191 -0.62950534 -0.84783393 -0.2982197

lstm.weight_ih_l0 f4 [64, 16]
000000 c3 8d 1f 3e 79 13 73 3e 88 03 cd bd 3e 19 cf 3d
       0.15581422 0.23737897 -0.10010439 0.101122364
000010 de ac d8 3d 60 03 ef bd 61 a7 ac 3e a4 ce ed 3c
       0.10579847 -0.116705656 0.3372145 0.029029198
000020 57 0b 8f 3d c9 ef 37 3d ce 2c df 3d eb 86 05 be
       0.06984585 0.04490641 0.10897218 -0.13039748
000030 f6 66 1c be 6a cf 6a 3e 25 4a 17 3e 43 91 06 3d
       -0.15273651 0.22930685 0.14774378 0.032853376
000040 ff d3 c4 3d 3c ac a1 3e 5a 77 50 3e 2b 37 60 3e
       0.096107475 0.31576717 0.20358029 0.21896045
000050 9a 7e 71 3e 54 25 e7 3d 73 12 81 3e 26 2f dc 3b
       0.23583451 0.11286417 0.25209388 0.0067194877
000060 a0 60 9d 3e 3a 38 37 bd 31 b9 b2 3d be ea b9 3d
       0.30737782 -0.044731356 0.08726729 0.09077977
000070 00 1b 20 be 56 d6 63 bd 87 e3 73 3e 87 1d a5 bd
       -0.156353 -0.05562433 0.23817264 -0.080622725
000080 4d 80 35 3e 65 17 84 be e8 af 92 bc 25 72 6b be
       0.17724724 -0.257991 -0.017906144 -0.22992761
000090 06 b3 44 3e e9 7b eb 3d 1b 5c 1a 3e 88 2d dc bc
       0.19208917 0.11498243 0.15074198 -0.02687718
0000a0 f3 db 0a 3d 75 4b 9d 3d 19 e6 08 3d 89 59 69 be
       0.033901166 0.07680408 0.033422563 -0.22788061
0000b0 b3 54 fe 3d b0 4c 55 3e 16 0d 03 be 2a ee 2d 3e
       0.12418499 0.20830035 -0.1279796 0.16985384
0000c0 b0 b7 5d 3e 6c 1d 05 bc bc c6 9d bd ed 71 99 3e
       0.21652102 -0.0081246905 -0.07703921 0.2996973
0000d0 3a 09 76 3e fa 25 8c 3e 9a 4f b1 bb 94 3f dc bd
       0.24026957 0.27372724 -0.0054111006 -0.10754314
0000e0 94 07 ca 3e 68 1e b3 3d 5a 36 36 3e 1b f1 06 3c
       0.39458907 0.08746034 0.17794171 0.008236195
0000f0 6c 24 80 3e a7 3c 2b 3c 47 89 2b 3e 8f 23 89 3d
       0.25027788 0.010451472 0.16751586 0.066962354
000100 14 d3 d6 3d cc 63 42 be f9 f2 0b 3f 16 9a 62 3e
       0.10489479 -0.18983382 0.5466762 0.22129092
000110 ab 25 e8 bc b7 06 96 3d 70 49 8c 3d 9a a3 8b 3e
       -0.028338274 0.073254995 0.068499446 0.27273256
000120 42 b6 ba 3e a7 07 1e 3e 04 4b 37 3e bb e8 2e bd
       0.36467177 0.15432607 0.1789971 -0.042702418
000130 b2 bd 57 3e e0 e8 c1 3d 71 99 3b be 20 b9 4a 3e
       0.21068457 0.094682455 -0.18320252 0.19797182
000140 60 81 18 3e c1 63 19 bd de 33 36 3c 6d 05 90 3e
       0.14893103 -0.03744865 0.011120765 0.2812914
000150 f3 ad d6 bc 49 a4 90 bd b8 53 81 bd db 51 51 be
       -0.026205992 -0.07062585 -0.06314796 -0.20441382
000160 5b ef 92 3e e3 d7 8d be d5 5e 82 3e c9 c6 de bc
       0.2869824 -0.2770377 0.25462976 -0.027194398
000170 67 60 f4 3b e9 ce ab 3e e4 91 58 3e f4 a6 38 bd
       0.007457781 0.33556297 0.21149403 -0.045081094
000180 ac 18 c4 bd 9c 66 97 bd e5 d1 ed 3e 6b 4b e9 bd
       -0.09575018 -0.07392618 0.464492 -0.11391338
000190 ba 12 a2 3e b5 28 fe 3b aa e7 00 3e 94 ac 1d 3e
       0.31654912 0.0077563175 0.12588373 0.15397865
0001a0 96 29 27 3e 28 61 19 3d 68 db 54 3e a2 fe 5c 3e
       0.16324458 0.03744617 0.20786822 0.2158151
0001b0 26 3f 15 3d ad 26 50 3e b2 52 83 3e 3d 1c 0b 3e
       0.036437176 0.20327254 0.2564903 0.13584991
0001c0 ee d6 e4 3d 8a c9 9e bc e8 4d 66 be 75 19 28 be
       0.11173807 -0.01938321 -0.22490656 -0.16415961
0001d0 78 0b 03 be 2a 62 31 bd e5 2a 32 3d b3 85 44 3e
       -0.12797344 -0.043306507 0.04349794 0.19191627
0001e0 8c 37 d2 3d 35 89 c9 3e 32 e7 90 be 8f 58 61 3e
       0.10264501 0.39362493 -0.28301388 0.22006439
0001f0 1d 01 54 be ef 4f 03 be 64 7c b7 3d 80 f9 22 be
       -0.2070355 -0.12823461 0.089592725 -0.15915489
000200 75 0c 63 be 50 b7 c4 bd 96 ab 02 3f ad c0 8f 3e
       -0.2217272 -0.096052766 0.5104307 0.28076687
000210 c0 11 e2 3e 55 88 1d be ba aa 9f 3e d8 26 3c 3e
       0.44154167 -0.15384038 0.31184942 0.18374193
000220 de e5 9a bd bf 8e aa 3d 23 0a a3 3e cd c8 1c 3e
       -0.07563375 0.08328008 0.3184367 0.15310974
000230 97 83 fb bb 65 df 98 3e d8 1d 12 3e eb 01 e0 3d
       -0.007675599 0.29857937 0.14269197 0.10937866
000240 ff 59 17 3e bc b9 4d be 26 9a 01 3f eb 8a a3 3e
       0.14780425 -0.20090383 0.50625837 0.31941923
000250 a3 d8 55 3e da 37 f6 3e 12 00 49 be 1d 40 bd bd
       0.20883422 0.48089486 -0.19628933 -0.09240744
000260 f4 fd fb be 00 ef 91 3e 23 e9 e3 bc 92 bd 2d bd
       -0.49217188 0.28502655 -0.02782113 -0.042417116
000270 aa 6c a5 3e 5c 7c fb be 79 74 7d 3e 0e aa a5 bd
       0.32309467 -0.49118316 0.24751462 -0.08089076
000280 79 a8 62 3e 93 f3 c0 bd d9 e4 86 3e fb f9 b6 3e
       0.2213458 -0.09421458 0.26346472 0.35737595
000290 c9 eb 0f bd 59 52 65 3e c4 c0 93 3e fa 06 61 bb
       -0.03513697 0.22394694 0.28858006 -0.0034336434
0002a0 a7 f1 d2 3e e9 03 72 3e 34 84 55 bc 44 3f 7b 3d
       0.4119999 0.23634304 -0.013032008 0.06133963
0002b0 3e 58 bc 3d 07 6d 78 3e 74 4e 79 3e e3 2b 6d 3e
       0.09196518 0.2426034 0.24346334 0.23161273
0002c0 c2 2a 25 3e 07 fc 28 be 5b ab 94 3e 21 10 13 bd
       0.16129592 -0.16502391 0.29036984 -0.035904054
0002d0 d6 a3 85 3e 17 17 6e 3e 18 76 c2 3b b6 7e 00 bd
       0.2610156 0.23250996 0.005934488 -0.03137084
0002e0 72 ad 55 3e 75 96 b3 3d 0e fe 3a be 55 a7 e0 3d
       0.20866945 0.08768932 -0.18260977 0.10969416
0002f0 3a 10 35 3e e1 a4 5f 3e 59 da 12 3e e7 a1 c2 3d
       0.17681971 0.2184024 0.14341106 0.09503537
000300 9d d2 6c be 4b 81 ab 3e 71 3f 16 be 51 00 b5 3d
       -0.23127218 0.3349708 -0.14672638 0.08837951
000310 99 4a 28 3e 20 d2 5d 3e 60 e9 a1 3e 16 6e a8 bd
       0.16434707 0.21662188 0.31623363 -0.08224122
000320 79 f5 2a be 1d 28 16 be fa 4b 46 3e 5e a5 0c bf
       -0.16695203 -0.1466374 0.1936492 -0.5493983
000330 77 98 12 be 01 a9 99 3e 92 94 40 3e d7 24 86 be
       -0.14315973 0.30011752 0.18806675 -0.26199982
000340 81 b7 5d 3e 3d 10 03 be cb 5f a9 bb 74 1e b9 3e
       0.21652032 -0.12799163 -0.00516889 0.36156046
000350 4a 02 3c bd 5a 74 c5 3d f8 28 d3 3e f0 c7 b1 3b
       -0.04590062 0.09641333 0.41242194 0.0054254457
000360 58 c3 cd 3e c5 c8 84 3e 02 7f 51 3e 53 98 4f 3e
       0.40188098 0.25934425 0.20458606 0.20272951
000370 0e ed 8c bd 8d 51 5f 3d 9b 1a 24 be e1 41 e7 bd
       -0.06881152 0.054521132 -0.16025774 -0.11291862
000380 75 d4 b7 bd 07 31 d2 3e b8 f9 bb 3e ac 33 79 3e
       -0.0897607 0.4105303 0.36713958 0.24336118
000390 dc f9 8e 3e 9d fa 98 bc b6 7b 37 3f 0b 6c 66 bd
       0.27925003 -0.01867419 0.7167314 -0.05625538
0003a0 c8 7b 00 be c3 cd 7d be c5 6c bc 3d 7b 6e 8e 3e
       -0.12547219 -0.24785523 0.09200434 0.27818665
0003b0 09 54 82 3c 94 ea 42 be 73 3b 1e bf 39 24 20 be
       0.015909212 -0.19034797 -0.6180946 -0.15638818
0003c0 b3 84 12 be fd fd 2f be e6 56 69 be 41 11 a5 3c
       -0.14308433 -0.17186733 -0.22787055 0.020149829
0003d0 1b 37 91 3d e6 f9 0f be ad 0c 99 3e 42 19 47 be
       0.07090589 -0.14060172 0.29892483 -0.19443229
0003e0 0a 0e bc 3e be 79 66 3e 91 5f f3 bd 02 63 90 bd
       0.3672946 0.22507378 -0.11883462 -0.07050134
0003f0 d1 98 d6 3d a0 9e 86 bb 91 2f a2 3e de ab bf bd
       0.10478366 -0.004108265 0.31676915 -0.09358953

lstm.weight_hh_l0 f4 [64, 16]
000000 02 ab 5d bd 6b ff 6e 3e 23 d3 2f 3d 58 85 78 be
       -0.054118164 0.23339622 0.042925965 -0.24269617
000010 f2 a9 a6 3d f3 ec 34 3e aa 9e 1c be 17 dc 20 3e
       0.08137883 0.17668514 -0.152949 0.15708958
000020 42 98 c5 3d ee 3c 5e 3d c2 f9 f5 3d 6e 16 8f bc
       0.096481815 0.054257326 0.12010528 -0.01746675
000030 96 6e 3d be a0 2d eb 3c 0c fa 4b 3e 30 cb 09 3d
       -0.18499216 0.02870828 0.19919604 0.03364104
000040 c3 63 23 bd 83 4b 32 be 06 b3 4f be 32 54 32 bd
       -0.039890062 -0.17411618 -0.20283136 -0.043537326
000050 6e 1e a1 3d 84 12 1c 3e 95 47 dd bb 25 d0 b0 3d
       0.07867132 0.15241438 -0.006752918 0.086334504
000060 12 2b 2c be 83 3f 5f be 68 e4 2d be 3c 40 31 3e
       -0.16813305 -0.21801572 -0.16981661 0.1730966
000070 7d f6 e4 bd 51 50 f4 bd 62 52 91 bc 8e 5d dc bd
       -0.111798264 -0.11929382 -0.017739478 -0.10760032
000080 5d 3c 34 bd b1 96 32 be e3 6a 2a be b6 9f 62 3e
       -0.04400288 -0.17440297 -0.16642337 0.22131237
000090 3f 07 7a be a5 52 b1 bc 02 48 ea 3d c2 4c 07 be
       -0.24416827 -0.021645853 0.11439516 -0.13212875
0000a0 d4 5b bc 3d 30 90 97 3c 4f 2b 22 3e c4 dd 4b 3e
       0.09197202 0.018501371 0.15836833 0.19908816
0000b0 70 2e d5 3c dd 93 2a be bc 37 6c bd 1e 0b 0a 3e
       0.02602312 -0.16657968 -0.05767034 0.13480803
0000c0 4f 40 4d 3e 77 74 51 3d 9c 01 df bd 55 b6 2d 3e
       0.20044063 0.05113646 -0.10888979 0.16964085
0000d0 a8 0c 63 be 1c 81 36 be d8 2b 9e bd dd cd f2 bd
       -0.22172797 -0.17822689 -0.07723206 -0.118556716
0000e0 57 9d 4a be a6 c0 cf 3d 01 d3 65 3e 37 9d 80 bc
       -0.19786583 0.10144167 0.22443773 -0.015699966
0000f0 63 c6 9d 3d 73 8a 54 3e 68 a5 1b be 5c cc 07 3e
       0.07703855 0.20755939 -0.15199816 0.1326155
000100 4d b4 86 be d6 1b 13 3d e5 1f e4 bc 2a b3 17 be
       -0.26309434 0.03591522 -0.02784724 -0.1481444
000110 ba 3d 3e 3e 94 ba 82 bb 7c 98 87 be 34 68 ee bd
       0.18578234 -0.003989527 -0.26483524 -0.11640969
000120 e7 94 c6 bd 54 8e 4a be 8c aa 54 bc 62 1f ca 3b
       -0.096963696 -0.19780856 -0.012980115 0.006168292
000130 79 bf ba bd b4 54 db b9 77 54 8d be 31 a8 72 3e
       -0.09118552 -0.00041834044 -0.27603504 0.23696972
000140 e5 a4 1d be 1a 9a 99 3e fb 38 18 3d 35 19 79 be
       -0.15394934 0.30000383 0.037163716 -0.24326022
000150 02 9a 1f be e6 79 c2 3d 22 3d 7e 3e 2a c2 00 3e
       -0.15586093 0.094959065 0.24828008 0.12574068
000160 a9 77 14 3d 72 1d 07 3e 40 dd 38 3e e3 09 64 3e
       0.03624693 0.13194826 0.1805315 0.22269396
000170 a8 c2 76 be db cb d1 3b 07 1d 1a be dd be 19 bd
       -0.24097693 0.0064024753 -0.15050136 -0.037535537
000180 c8 d9 84 be fe 9f 67 be 20 02 16 3e 0b 87 32 bd
       -0.25947404 -0.22619626 0.14649248 -0.04358582
000190 d1 e4 b2 3d f1 9f 7d be 46 a3 7c bc 59 a9 38 3e
       0.087350495 -0.24768044 -0.015419787 0.18033351
0001a0 15 7b 64 3e 9b 0d 45 3e 72 f4 72 3e c7 02 6f be
       0.22312577 0.19243471 0.23726061 -0.23340903
0001b0 1f 34 f0 bd 0d 3f 25 be f9 fd 66 3e ff 7e 98 bd
       -0.11728691 -0.16137333 0.2255782 -0.074460976
0001c0 43 a1 2b bd 7f d9 13 3e 33 a3 4c ba 7b f2 52 3e
       -0.041901838 0.14438437 -0.0007806301 0.20600311
0001d0 97 59 d3 bc e3 9d 01 be 17 58 35 3e fc 31 7e be
       -0.025799556 -0.12657885 0.17709385 -0.24823755
0001e0 d4 b2 bc 3c 8b e6 83 3c 1b 9f b4 bc a0 16 ba bd
       0.02303449 0.016101142 -0.022048524 -0.090863466
0001f0 d9 9f 0c be c3 c5 3b be e0 8b be bd 1d 06 09 be
       -0.13732852 -0.18337159 -0.09304023 -0.13381238
000200 fb 02 61 3e bb d4 3b 3d f0 ca ab 3d e2 12 a7 3d
       0.21973793 0.045857172 0.08388317 0.081578985
000210 97 a1 3b be 08 aa b8 3c 30 9c 24 be f8 1b 45 3e
       -0.1832336 0.022542015 -0.16075206 0.1924895
000220 82 f2 c2 3d bf 06 29 3d cc 24 04 3e 90 ca c5 bd
       0.09518911 0.0412662 0.12904662 -0.09657776
000230 90 23 e8 bd 0b 85 49 bd 73 bf d8 3d e4 56 4c 3e
       -0.11334908 -0.049199145 0.10583391 0.19955021
000240 47 c4 93 be cb 9e 95 bc 96 f0 2a 3c 08 f8 9c be
       -0.28860685 -0.018264195 0.010433337 -0.30657983
000250 6d b4 b2 be f8 1f bb be df 6a c0 bd 02 4e 5f be
       -0.3490328 -0.36547828 -0.09395384 -0.21807101
000260 04 a7 6f 3e 5c 1f 2f bc f1 d6 11 be 85 f4 ae bd
       0.23403555 -0.010688629 -0.1424215 -0.08542732
000270 c1 93 b2 3d 97 69 99 3d a8 d8 8f bd 75 35 cb 3e
       0.08719588 0.07490843 -0.07023746 0.39689222
000280 22 2b 36 3e 6c ef 25 bd 54 db 44 3e 53 fd 3f be
       0.17789891 -0.040511534 0.19224292 -0.1874898
000290 ec 50 95 3d 55 db 6d 3e 79 47 9e 3e ef 9f 1c 3e
       0.07290825 0.232282 0.30913904 0.15295385
0002a0 89 47 9a bc 9a dc c0 bd 28 57 3d be cf 03 58 3d
       -0.018832939 -0.094170764 -0.18490279 0.052738007
0002b0 c6 36 53 3e 3b 4e 0e bd ae 62 1e 3e f5 d6 29 3e
       0.20626363 -0.034742575 0.15467331 0.16585906
0002c0 a3 e5 5e 3e 59 77 e4 bd 21 d6 ee bd 1a da 55 3e
       0.21767287 -0.11155576 -0.116619356 0.2088398
0002d0 43 6f 30 3d 5f d5 59 3e b0 27 6f 3e 87 49 72 be
       0.043074857 0.21272801 0.23354983 -0.23660861
0002e0 46 f6 7e 3e b1 ca 00 3d 89 3d 05 be 11 62 14 3e
       0.24898633 0.0314433 -0.13011755 0.14490534
0002f0 bf 7c 3d be 1c c7 71 bd b4 53 32 3e 8b 4d 50 3e
       -0.18504618 -0.059027776 0.17414743 0.2034208
000300 a1 f0 03 be 57 b4 b1 bd 3c b2 d1 bc c7 eb b5 be
       -0.12884761 -0.08676975 -0.025597684 -0.35531446
000310 94 4d 20 3e 78 1c ff bd d4 2f 90 bd aa a8 52 3e
       0.15654594 -0.12456602 -0.070403725 0.20572153
000320 f4 ea 4f 3d 0c 9b 4f 3d e3 78 6d be 77 68 85 be
       0.050761178 0.050684974 -0.23190646 -0.26056263
000330 d5 7f 1e be c2 3f e1 be e6 7e 06 3e dc b2 de 3c
       -0.15478452 -0.43993956 0.13134345 0.027184896
000340 c5 9a 67 be 57 55 c1 bc 94 7f 2e be c9 c4 74 bd
       -0.22617634 -0.023600264 -0.17040855 -0.05975798
000350 11 54 34 be 97 14 7f 3e bd a2 99 3e cf 0b 4e be
       -0.17610194 0.24910198 0.30006972 -0.20121692
000360 c3 3d 67 be 03 26 9d 3c 2a 71 4b be 90 bb 9d bd
       -0.22582154 0.019183164 -0.19867387 -0.0770179
000370 22 3c 08 be f3 77 af bd 19 f2 68 3e 3d c6 1d 3e
       -0.13304189 -0.085678004 0.22748603 0.15407653
000380 c3 51 8c be c9 6d 95 be 4b 11 19 be 38 45 cf 3d
       -0.2740613 -0.29185322 -0.14948003 0.10120624
000390 9f 6a a5 bd 30 e7 0b 3e 0b 6e c1 bc 7d 3c 3a 3e
       -0.08076977 0.1366241 -0.023612043 0.18187137
0003a0 9b 51 42 3e 5a f5 87 3d d3 c6 67 bd 46 e1 96 3e
       0.18976443 0.06638594 -0.056586098 0.29468745
0003b0 c1 cc 3b 3d fa 4c 09 bd 2e 24 55 3e 34 9b 55 3e
       0.045849565 -0.033520676 0.20814583 0.20859987
0003c0 01 9a 0f be e6 46 96 3e f7 24 86 3e d6 c8 28 3e
       -0.14023592 0.29350966 0.26200077 0.16482863
0003d0 3b 49 4f 3e 02 69 a1 3d fd f0 c8 3d 21 f6 6d be
       0.20242779 0.07881357 0.0981159 -0.23238422
0003e0 29 b6 b7 3d 69 1b b4 3d a0 0f 52 3d 36 81 61 3d
       0.08970291 0.087942906 0.051284432 0.055054866
0003f0 a5 8d b3 bd 8f 0e 0a 3e 25 f7 65 3e fc f2 33 be
       -0.08767251 0.13482116 0.2245756 -0.1757316

lstm.bias_ih_l0 f4 [64]
000000 e3 75 60 bd 23 81 d7 3e 39 68 38 3e fa 49 bf 3e
       -0.054799926 0.4209071 0.18008508 0.37361127
000010 5c c6 30 be c4 6a 38 3e 1d f0 24 3e 4a b6 3f 3e
       -0.17263168 0.18009478 0.16107221 0.18721882
000020 eb ce 10 3e d3 f8 fb 3e 8b c3 f7 3e ba 0e 72 3e
       0.14141433 0.49213275 0.48391375 0.2363843
000030 b8 b1 23 be e6 ec c0 3e f9 db 40 be 69 ae 05 3e
       -0.15985763 0.3768074 -0.18833913 0.13054813
000040 cd 67 a0 3e f3 39 dc 3e b4 7e 65 3d 12 b9 a9 3e
       0.31329194 0.43012962 0.056029037 0.3314901
000050 09 f4 52 be 6c 1b b9 3e b0 c2 2b 3e 09 24 2a 3d
       -0.20600905 0.36153734 0.16773486 0.041538272
000060 7d 95 24 3e b6 b9 2c 3e 50 35 b7 3e 5f e8 48 3c
       0.1607265 0.16867718 0.35782862 0.012262433
000070 4b c2 2f 3e aa 8a b9 3e 6d 74 82 3e 7a 30 bc 3d
       0.1716396 0.36238605 0.2547945 0.09188934
000080 69 4e d7 3d a7 a9 1f bf b8 11 2f be 31 41 e2 3e
       0.105130024 -0.62368244 -0.17096603 0.44190362
000090 24 7a 3d bd b5 33 91 3d c9 b7 db be cd b7 c0 3e
       -0.04625906 0.070899405 -0.42913654 0.3764023
0000a0 d1 cf ea 3e ec b2 3c bf 97 57 2b 3f 21 27 77 3e
       0.45861676 -0.73710513 0.66930526 0.2413602
0000b0 1b aa f5 be 59 50 84 3e bf 63 0c 3f f0 91 53 bf
       -0.47981343 0.2584255 0.548397 -0.8264456
0000c0 7d e2 8f 3e d0 41 d6 3d f0 0b 45 bd 5e cd c9 3b
       0.28102484 0.104617715 -0.048107088 0.006158515
0000d0 4e db cf 3d ed 23 a1 3e f2 dd b1 3e 02 a2 a8 3e
       0.10149251 0.31472722 0.34739643 0.32936102
0000e0 79 ec bf 3e f0 08 a3 3e b5 c3 94 3e 58 3c 1a bd
       0.37485102 0.31842756 0.29055563 -0.037655205
0000f0 fc ca f8 3d e8 c6 a7 3e a5 c4 9a 3d 56 2f 19 3e
       0.12148091 0.3276894 0.07557038 0.14959463

lstm.bias_hh_l0 f4 [64]
000000 a4 44 b1 bd 05 a8 a3 3e b7 56 b0 3e 32 b7 cb 3e
       -0.0865567 0.31964126 0.34441158 0.39788204
000010 b7 42 33 3e 2f 08 91 3c 8c aa 3d 3e 41 64 2c bd
       0.17505918 0.017704098 0.1852209 -0.042087797
000020 27 70 c2 3d c5 56 f2 3e e5 41 82 3e 6d 64 72 bd
       0.094940476 0.47331825 0.254409 -0.059177805
000030 6a ee 4e bd 2f 07 9d 3e 68 7f 73 3c 53 8e 25 3e
       -0.050520338 0.30669543 0.014861919 0.16167574
000040 e5 2b a2 3e fb ca 86 3d 46 f5 c5 bd e6 c6 33 3e
       0.31674114 0.06581684 -0.09665923 0.17556342
000050 1a 5d 02 be 6d 6a b1 3e 81 69 3a 3e 3e 42 07 be
       -0.12730828 0.3465151 0.18204309 -0.13208863
000060 c8 60 cf 3d f7 90 32 3d 81 65 64 bd 4f 38 67 be
       0.101258814 0.04359528 -0.055760864 -0.22580074
000070 11 12 f2 3c a8 4a 56 3e 0f a6 c8 3d 68 08 20 3d
       0.02954963 0.20926917 0.09797298 0.039070517
000080 20 38 ae 3e 97 d6 36 be e9 1c 7f bc b6 e6 8f 3e
       0.34027195 -0.17855297 -0.015570858 0.28105706
000090 25 91 28 3e 93 89 ae bc 36 e4 13 3d ef 5b c9 3e
       0.16461618 -0.021305835 0.03610631 0.39327952
0000a0 6e 10 1a 3f a0 ea 55 bf 1b b8 69 3f ab 44 3a 3e
       0.6018132 -0.83561134 0.9129655 0.18190257
0000b0 3d 02 d0 be bd e2 f9 3e db 71 36 3f e9 b0 6b bf
       -0.40626708 0.488058 0.7126748 -0.9206682
0000c0 ca 17 80 3e d9 d9 8d 3e 2b fe 98 bd 69 c9 90 3e
       0.2501815 0.27705267 -0.07470354 0.28278664
0000d0 02 92 3d 3e d4 d3 b2 3d f0 b6 61 3d 80 a4 08 3e
       0.18512729 0.08731809 0.055106103 0.13344002
0000e0 2f da 50 3e c0 a9 1b 3e 10 10 07 3d 5b 5d ad bc
       0.2039573 0.15201473 0.032974303 -0.02116268
0000f0 dc e2 b9 3d 58 76 a7 3e 81 1b 87 3e f0 7d 17 bc
       0.09076473 0.32707477 0.2638817 -0.009246334

lstm.weight_ih_l1 f4 [64, 16]
000000 20 cd a2 3e 26 5e 72 be d1 e4 59 be c1 5b b1 be
       0.31797123 -0.23668727 -0.21278693 -0.34640315
000010 1d 5c a9 3d 4c ec 70 be 84 cd f2 3d 47 16 26 be
       0.08269522 -0.2352764 0.11855605 -0.16219436
000020 81 c4 ea bc 09 97 bd be 62 dc d2 3d e2 66 55 bc
       -0.028658153 -0.37029293 0.10295941 -0.013025017
000030 12 92 92 3d 8f bc 18 be df 78 cd 3d 21 bb c4 3e
       0.07156767 -0.1491568 0.1003282 0.38424018
000040 ee 46 ad 3c 88 19 78 3d a8 6d 6a be 46 b7 b2 3d
       0.021151986 0.060571223 -0.22893393 0.08726363
000050 31 dc f2 3e d4 28 b7 3e 22 6d fc 3e 07 19 67 3d
       0.47433618 0.35773337 0.49302012 0.056420352
000060 0a e7 2d bf dd 8b d7 3e e0 65 d7 be 52 26 40 be
       -0.6793066 0.42098895 -0.42069912 -0.18764618
000070 af 25 04 3f 44 f3 b1 bc db 84 19 be e2 41 c0 bd
       0.5162 -0.021722443 -0.14992087 -0.09387566
000080 87 c5 43 3e ea 1c ac bc a3 4c d8 bd 71 2b 24 be
       0.1911832 -0.021009881 -0.10561492 -0.16032197
000090 c2 ef 92 bd 63 19 44 be 65 2e 51 3e 4e 86 d0 3d
       -0.071746364 -0.1915031 0.20427854 0.101818666
0000a0 ad ee 8b 3d f9 4e 89 3d ca b4 16 3e f9 16 bf 3e
       0.06832633 0.06704516 0.14717403 0.37322214
0000b0 2e 75 6d 3e 25 3a 0f 3e 14 f9 44 3e 39 1e 00 3e
       0.23189232 0.13987024 0.19235641 0.12511529
0000c0 8b c0 7f 3b 18 29 d6 3d a2 19 99 be fd 08 ed 3d
       0.0039024677 0.10457057 -0.2990237 0.1157398
0000d0 f9 b5 2e 3f 28 dc 91 3e b6 a1 c2 3e e7 24 c7 bd
       0.6824642 0.28488278 0.38014 -0.097238354
0000e0 1a d7 b6 be 28 1b c3 3e bb b2 04 bf 26 93 af 3e
       -0.35710984 0.38106656 -0.5183522 0.34291953
0000f0 a3 d8 de 3e 6d 95 aa be e9 74 ca bd d9 0c 85 be
       0.43524656 -0.33317128 -0.0988558 -0.25986364
000100 a6 c7 f4 bd 26 59 02 3e 22 1f 0f 3e fd 43 e0 bc
       -0.119521424 0.1272932 0.1397672 -0.02737617
000110 08 af 85 bd 83 e8 5b 3d 9c fa ec bd b6 f3 60 3e
       -0.06527525 0.053688537 -0.115712374 0.21967968
000120 a9 26 c1 3d ed d9 b5 bd 3e 77 6e be da fa 95 3e
       0.09431202 -0.08879457 -0.23287675 0.29292947
000130 1c fb 7a 3e 3a 7d 89 3c 19 86 80 be 65 ab 27 bd
       0.24509853 0.016783345 -0.25102308 -0.04093494
000140 22 23 f6 3c c3 fd e5 3e 2b ad 0d 3e d1 d7 4e 3e
       0.03004605 0.44920167 0.1383559 0.20199515
000150 f8 9b 08 3f cd 50 86 3e f6 11 ce 3e 36 1c 1f 3e
       0.5336299 0.2623352 0.40248078 0.15538105
000160 8a 0c dd be ee 53 9c 3e 28 a4 09 bf b5 a3 a2 3e
       -0.4317363 0.30532783 -0.5376611 0.31765524
000170 c1 33 02 bd 16 85 ba be 98 56 c2 be b4 21 cf bd
       -0.031787638 -0.36429662 -0.3795669 -0.1011385
000180 15 bd 42 3e d2 6a 29 3d 64 b4 6f 3e 21 4d 85 be
       0.19017442 0.041361637 0.23408657 -0.26035407
000190 ce 40 6c 3c c5 a1 23 be 88 91 f7 3d fb 35 ec 3b
       0.0144197475 -0.15979679 0.12088305 0.0072085834
0001a0 f5 10 d0 bd 55 65 63 be aa 21 0e 3e 17 26 15 be
       -0.10159484 -0.22206624 0.1388003 -0.14565311
0001b0 5a db 70 be 36 6e 85 3e 82 9c 04 be 2d ce 19 be
       -0.23521176 0.26060647 -0.12950328 -0.15020056
0001c0 20 eb 2b be d5 3a 61 be a6 ad 7a be 2d 94 83 bd
       -0.16788912 -0.21995099 -0.24480304 -0.06424747
0001d0 9a 1c 2b be f0 ad 99 bd bb 90 18 be c7 07 e2 3c
       -0.1671013 -0.07503879 -0.1489896 0.0275916
0001e0 b5 ee 0e be 94 2b 10 3d 38 06 9e 3e e1 a2 e6 bd
       -0.13958247 0.03519781 0.3086412 -0.112615354
0001f0 59 e1 e5 bd 76 cc 8a 3e 62 da 0d 3e 59 cf b9 bd
       -0.11224622 0.27109116 0.13852838 -0.090727516
000200 66 53 4b 3a 0b 5f 87 be 96 f2 13 3e 9d a1 e0 bd
       0.0007756263 -0.264397 0.14448008 -0.10968325
000210 eb 03 ef 3d 26 34 48 3e 54 3a 3f bd 32 f5 5a be
       0.11670669 0.19551143 -0.046686485 -0.21382597
000220 f1 1a 34 3e c7 07 12 3e bc f0 a6 3e a3 5a 17 3e
       0.17588402 0.1426078 0.3260554 0.14780669
000230 61 1e 03 be 43 0c 7c 3e f7 74 4e 3e 52 7c f8 3d
       -0.12804557 0.24614052 0.20161806 0.12133087
000240 2f de fe 3d dc 2f e8 3e fb f9 ab be 0c e3 eb 3e
       0.12444722 0.45349014 -0.33589157 0.4607166
000250 a6 0c 5c 3e 2e b7 a8 3b 73 13 56 3e 77 9d 3a 3c
       0.214892 0.00514879 0.20905857 0.011390082
000260 13 38 bc be 5f 0c be 3e 9a e6 10 bf 7e 5f 92 3e
       -0.3676153 0.37118813 -0.5660187 0.2858848
000270 88 46 c7 3e e2 56 82 be 39 25 61 be 8c 78 79 be
       0.38921 -0.2545691 -0.21986856 -0.24362391
000280 0d e5 23 be f9 89 02 3f 75 84 3c 3d 70 ee 95 bd
       -0.16005345 0.5099178 0.04602476 -0.07320869
000290 fd a7 0c 3f 7e 88 4e be 57 56 c4 3e ba 75 25 3c
       0.5494383 -0.20169255 0.38347122 0.010098869
0002a0 e3 69 10 bf be 8b 33 3f 84 0b 11 bf 1d a4 83 3e
       -0.5641157 0.70135105 -0.56658196 0.25711146
0002b0 4f da bc 3e 4f 4a e1 bd 3e c1 ae be c8 b1 9c be
       0.36885306 -0.11000501 -0.34131807 -0.30604386
0002c0 30 c0 23 be 02 e8 5f be fa e3 2d 3e 6f 74 83 3d
       -0.15991282 -0.21865848 0.16981497 0.06418692
0002d0 52 e1 8f bc 9b 47 ef 3c c1 d1 3b 3d ba eb 1d be
       -0.017563496 0.029208949 0.045854334 -0.15421954
0002e0 1e eb 8c bd 6e c5 90 be 19 74 3b be 30 83 49 3e
       -0.068807825 -0.28275627 -0.18306006 0.1967895
0002f0 a1 9a 87 be 13 96 38 3e 04 ef 29 3e e1 6b c8 bc
       -0.2648516 0.18025999 0.16595083 -0.024465503
000300 88 43 44 3e fb 09 4a be 56 c9 70 be f9 86 14 3e
       0.19166386 -0.1973037 -0.23514304 0.14504613
000310 61 32 6b 3e 26 0c c2 3d a4 f2 58 be 33 cc 7b be
       0.22968437 0.094749734 -0.2118631 -0.24589615
000320 89 55 33 be 95 a5 b6 bd 6b c4 3a 3e 0e 97 2f be
       -0.17513098 -0.08918301 0.1823899 -0.17147467
000330 22 68 fe bd 3c 53 49 be 87 8a 40 3e 7f ed 0d 3e
       -0.124222055 -0.19660658 0.18802844 0.13860129
000340 be f7 e5 3d b8 c3 1f 3f ef a2 d5 bd 88 d0 83 3e
       0.11228894 0.6240802 -0.10431468 0.25745034
000350 67 fc b1 3e a3 5f 0b 3d 69 0b 27 3f 62 0a d6 3c
       0.3476288 0.034026753 0.65251786 0.026127998
000360 67 7b 37 bf 5d 4b a5 3e 8d 17 ef be bb 48 9c 3e
       -0.7167267 0.3228406 -0.46697655 0.3052424
000370 b8 20 35 3e 52 7d a0 be 20 0c 40 be ec 1d 3f be
       0.17688262 -0.31345612 -0.18754625 -0.18663758
000380 9a 39 3e bc 91 c9 97 be d6 2e 22 3e e2 20 93 3d
       -0.011610413 -0.2964597 0.15838179 0.07184006
000390 93 14 1c bd 1f 20 92 be d1 0b 26 3e 67 6c f1 b9
       -0.03810556 -0.2854013 0.16215445 -0.00046047868
0003a0 17 7b 8e be 70 5c 14 3d 8d 2a 3d 3e 7d 3d 0d 3e
       -0.27828285 0.036220968 0.18473263 0.13792987
0003b0 a8 1f 9c be 21 ca 89 3e ad a8 a2 3c 05 22 f9 3d
       -0.30492902 0.26912025 0.019855822 0.12164692
0003c0 df 47 65 3d 05 11 02 3f da eb 95 be f7 65 08 3f
       0.055976745 0.5080722 -0.29281503 0.53280586
0003d0 35 e1 aa 3e e8 1f 5c 3e d1 f3 55 3e 22 dc 3a 3e
       0.33374944 0.21496546 0.2089379 0.18248037
0003e0 73 c0 25 bf c7 ea 1b 3f d2 49 d6 be 24 ed 34 bb
       -0.6474678 0.60905117 -0.41853195 -0.0027607167
0003f0 5a 77 93 3e 2d be f8 be bd 43 f6 3c 99 a9 1c be
       0.28801996 -0.48582593 0.030061597 -0.15299071

lstm.weight_hh_l1 f4 [64, 16]
000000 ff 6f 5c be 32 c2 2d 3e 61 e8 6a be a2 6b 17 3d
       -0.21527098 0.16968611 -0.22940208 0.03696788
000010 fa 0d 3d 3e bc ba f6 bd 3d 95 55 3e a9 19 2a bd
       0.18462363 -0.120473355 0.20857711 -0.041528378
000020 51 1c 46 be d9 19 a4 be ed 5b 44 be ff e2 c5 3c
       -0.1934674 -0.3205097 -0.19175692 0.024156092
000030 ec 59 13 be bf 67 92 bd 7e 18 fd bd b0 f1 a8 3d
       -0.14389771 -0.07148694 -0.12358187 0.08249223
000040 eb 74 77 be 1f 9d b3 be d9 b8 d5 3d f2 52 9e be
       -0.24165694 -0.3508081 0.104356475 -0.30922657
000050 59 eb 19 3e 6e 52 3c be 48 68 90 be 48 51 03 be
       0.15031184 -0.1839082 -0.2820456 -0.12823975
000060 96 b8 fc 3d 02 38 ae be 69 9b 9b be d3 27 c4 bd
       0.123398945 -0.34027106 -0.30392006 -0.09577908
000070 c0 ce 52 3e 95 e2 f2 bd d3 3f 8b 3d 8b 97 cd 3c
       0.20586681 -0.11859623 0.06799283 0.025096675
000080 e6 2d 1f 3e a0 d0 77 3e 80 d3 8e bd 5b e9 aa bc
       0.15544853 0.24200678 -0.06973934 -0.020863226
000090 3e 6e 87 3d d8 de b7 bd 87 c3 16 3e be 97 5c 3e
       0.06612824 -0.08978051 0.14723025 0.2154226
0000a0 8a 58 14 be f9 41 a1 3e 35 f1 ee 3c 33 eb 2b bb
       -0.144869 0.31495646 0.02916775 -0.002623272
0000b0 60 ff 92 bd 82 28 9e 3e 37 07 13 3e d0 78 12 3e
       -0.07177615 0.3089028 0.14358221 0.14303899
0000c0 c0 53 4b 3d dc c4 a7 be ce a7 91 bd 69 e7 ce bd
       0.049640417 -0.3276738 -0.07112084 -0.10102732
0000d0 ca 7d 4c 3d 06 47 3c be de 68 1b be 75 40 81 be
       0.04992465 -0.18386468 -0.15176722 -0.2524449
0000e0 6a 52 8d 3d 94 a9 b6 bd e6 0b b7 bc 99 9f 42 be
       0.06900485 -0.08919063 -0.02234454 -0.19006194
0000f0 e1 7d 14 be 7f 9e 02 3d 39 ce 33 be a4 d9 98 be
       -0.14501144 0.031889435 -0.17559136 -0.29853547
000100 10 ba a7 bd ad 91 4c be 86 09 6a be a8 89 b5 3d
       -0.081897855 -0.19977446 -0.22855195 0.088641465
000110 71 75 5d be f5 31 52 3e fb 3b 4a 3e 89 4a a3 3d
       -0.21626832 0.2052687 0.19749443 0.07973201
000120 82 6f e9 bd 57 7a c5 3d f7 3e d8 bc 9b ee 41 3e
       -0.113982216 0.09642475 -0.026397211 0.18938677
000130 97 d3 4b be 4e e6 4f bd 6c 43 a9 bc e0 07 18 be
       -0.19904934 -0.050756745 -0.020662032 -0.14846754
000140 f6 26 0a 3e 5d a5 41 3e 89 6a 16 be f7 5f 23 be
       0.13491425 0.18910737 -0.14689077 -0.15954576
000150 c6 f8 47 bc 36 22 45 be b5 6d 5a 3e e7 81 10 3e
       -0.012205308 -0.19251332 0.21330912 0.14112054
000160 99 c0 58 3e 4b 86 9d be e3 c8 85 3d e0 1e ba bc
       0.2116722 -0.3076652 0.06532457 -0.0227198
000170 f8 93 88 3e b5 78 b0 bd 0b 6c bf bd c5 f6 32 be
       0.2667539 -0.08616773 -0.093467794 -0.17476948
000180 83 ae 75 bd 98 e0 2b 3d 29 82 41 3b 6e a8 19 3e
       -0.05998088 0.041962236 0.0029527044 0.15005657
000190 e4 a7 62 3e 4a b9 42 bd b2 52 5e 3d e8 81 85 3e
       0.22134358 -0.047539987 0.054278083 0.26075673
0001a0 80 22 cc 3d 9f ed 1b 3e 3a 27 4d be 04 61 1c 3e
       0.09967518 0.15227364 -0.20034495 0.15271384
0001b0 e2 1e 04 be af cc 61 3e 4d 2d 0d 3e 45 4c 3e 3d
       -0.12902406 0.22050737 0.13786812 0.046459455
0001c0 36 85 03 3e 7f 3d 3e be af a3 19 be 00 b4 67 3d
       0.12843785 -0.18578146 -0.15003847 0.056568146
0001d0 64 1f 4d bd f0 ec 43 3e 79 f9 85 3e fe 0a 2f 3c
       -0.050078765 0.19133353 0.26166895 0.010683773
0001e0 b5 c4 f4 3d a2 62 1d 3d e0 38 08 be 3f e3 6f bd
       0.119515814 0.03842414 -0.13302946 -0.05856633
0001f0 1e b4 5d 3d 15 da 7e 3e be e8 20 3e 4d 82 0c be
       0.05412685 0.24887879 0.15713784 -0.13721581
000200 4e 50 56 3e 37 b0 0e 3e 1c 97 15 be 1d 2a 05 bd
       0.20929071 0.13934408 -0.14608425 -0.032510865
000210 43 c9 4e 3e 9b e0 a9 bb 3e f4 2a be 0c 63 22 3c
       0.20193963 -0.0051842458 -0.16694734 0.00991131
000220 75 31 6b 3e 5f 3b 2a be f3 03 6c be 05 e2 98 3d
       0.22968085 -0.16624211 -0.23048382 0.07464985
000230 66 d0 28 be 0f 61 43 3d 9a df 28 be fb 28 f4 bd
       -0.16485748 0.047699984 -0.16491547 -0.11921879
000240 c0 c9 75 be c0 c8 15 be 4f f4 01 3e 5d ab 6a 3e
       -0.24002743 -0.14627361 0.12690853 0.22916932
000250 30 f4 1c be 79 ac eb bd b4 c8 8a be 87 8e f1 3c
       -0.15327525 -0.11507506 -0.2710625 0.029486908
000260 96 b9 c5 3d 61 bb 99 bd c2 72 79 3e ea ec 2a 3e
       0.09654538 -0.07506443 0.24360183 0.16691938
000270 e3 a0 87 3d 5d 08 12 3b 9d bf 31 3e d7 8f 2b 3c
       0.066224836 0.0022282817 0.17358251 0.010471306
000280 cd 0f a6 bd 9f c6 51 be a5 05 a8 be 68 06 91 bd
       -0.081084825 -0.20485924 -0.32816806 -0.070813
000290 03 cc 37 3e 8a 75 d5 bd 15 59 8e 3d b9 b8 d6 bc
       0.17948918 -0.104228094 0.06950585 -0.02621113
0002a0 12 92 09 3e 59 51 da be f7 81 29 be 16 2c f4 bd
       0.13434628 -0.42640188 -0.16553484 -0.11922471
0002b0 67 b8 5b 3d 44 43 ab bd 98 38 2a be 48 34 d5 3c
       0.053642657 -0.08362439 -0.16623151 0.026025906
0002c0 c0 09 e0 3c 86 92 14 be dd 46 ac 3d fa 43 0e be
       0.0273484 -0.1450902 0.084119536 -0.13893119
0002d0 da a3 3b 3d ae 08 b6 3d 93 61 b8 bd 69 9f 49 3e
       0.045810558 0.08888374 -0.09002986 0.19689716
0002e0 01 bb e3 bd 66 82 85 3d b7 e9 99 3d e9 d8 d7 3c
       -0.111196525 0.06519012 0.07515281 0.026348548
0002f0 40 ce 22 3e e8 38 07 be 3c 9d c6 bd 5e 8c 15 be
       0.1589899 -0.13205302 -0.09697959 -0.14604327
000300 9c 3f 7d 3e f4 8f 1d 3d 2f 7e 53 be e3 48 cc 3d
       0.24731296 0.038467363 -0.20653604 0.099748395
000310 de e2 44 3e 71 a3 88 3d b4 0c 18 be 66 2a 98 3d
       0.19227168 0.06671799 -0.14848596 0.07429962
000320 99 68 63 3e 15 da f1 3d d7 f1 17 be f2 4b 94 3d
       0.2220787 0.11809174 -0.14838348 0.07241048
000330 bd 3e 8f bd 9e ae e2 b8 db 0f 41 bc 2a e3 53 3d
       -0.06994388 -0.00010809045 -0.011783565 0.051730312
000340 c5 a7 8a be 39 4d 03 3e 90 59 e0 3c 8a 97 92 bc
       -0.27081123 0.12822427 0.027386457 -0.017894525
000350 d5 0e 39 3e 7f 36 8b bd 55 06 de bd 55 ff 8b be
       0.18072064 -0.06797504 -0.108410515 -0.2734324
000360 c8 88 19 3e 81 fa fc bc 43 e0 0d bd fa 34 04 be
       0.14993584 -0.030881168 -0.0346377 -0.12910834
000370 da 5c 6a 3e 19 6c 19 3d 56 67 81 be e3 53 97 3e
       0.22886983 0.037456606 -0.25274152 0.29556188
000380 94 cc 71 3e 64 f3 6a 3e 2f d3 3e 3e 61 69 9e 3e
       0.23613197 0.22944409 0.18635248 0.30939773
000390 43 9b 17 3e 9d 69 bd bc 0b 0c 79 3d 4c 94 a0 3d
       0.14805321 -0.02312165 0.0608025 0.078407854
0003a0 3f dc 07 bd 87 ec 16 bb b8 aa 17 be d1 00 10 be
       -0.033169027 -0.0023029165 -0.14811218 -0.14062811
0003b0 60 48 d2 3d 10 85 80 3e 5f 00 24 3d 6b c7 82 3e
       0.10267711 0.2510152 0.040039416 0.2554277
0003c0 e9 75 5b bd d7 50 11 3e d5 02 8c 3d ed 67 bf 3d
       -0.053579245 0.14190994 0.06836478 0.09345994
0003d0 25 57 34 3d 4a f7 3d be 4d 6a 83 bd 2a db a2 be
       0.04402842 -0.18551365 -0.0641676 -0.31807834
0003e0 b9 50 9e bd 7a a4 43 3e b3 f7 49 3e 1e b9 9c bd
       -0.077302404 0.19105712 0.19723396 -0.07652496
0003f0 c8 c1 5c be e2 1c 38 3e 0e 5a b4 3d e4 09 fd bd
       -0.21558297 0.17979768 0.08806239 -0.12355402

lstm.bias_ih_l1 f4 [64]
000000 1b 95 dc 3d 76 36 22 3f c3 b4 23 3f 16 01 2e 3f
       0.10770627 0.6336435 0.63947695 0.67970407
000010 66 ef 25 3e ce dd fe 3e 90 83 9f 3e 5d 7f b7 3e
       0.16204605 0.497786 0.31155062 0.35839358
000020 1f b5 df bd 4a 4b 46 3f a9 ea e4 3e 13 8f 33 3d
       -0.10923218 0.7745863 0.44710281 0.043837618
000030 14 09 53 3e 8b da 15 3f dd b0 4f 3e 93 e6 43 3f
       0.20608932 0.58536595 0.20282312 0.76523703
000040 ef 53 1c be b6 83 e7 bd ce 00 8b 3e 97 e7 87 bd
       -0.15266393 -0.11304419 0.2714905 -0.06635969
000050 4d b5 b5 3d 3b 7e cf 3e fa fa d1 bc 50 bd 0e 3e
       0.08872471 0.40525994 -0.02563237 0.13939404
000060 d0 a0 3d 3e fb e0 c7 3e c4 f0 7e bd f7 85 1b be
       0.18518376 0.39038834 -0.06224133 -0.15187822
000070 fd 7f 01 3e d1 22 e9 bd 73 f3 c4 3e 16 99 97 3e
       0.1264648 -0.11383594 0.38466987 0.29608983
000080 b4 a7 e1 3e af 04 16 3f d4 b9 74 3e ea 25 2a 3f
       0.4407326 0.58600897 0.23899013 0.664641
000090 78 2e a1 3d 47 5b b9 3d 65 83 1a bd cd f3 2e be
       0.07870191 0.09050613 -0.037722964 -0.1708519
0000a0 f6 53 02 3e cf 59 03 3f 83 c8 12 3f c2 09 43 3e
       0.12727341 0.5130891 0.57337207 0.19046691
0000b0 36 48 b3 be de 54 17 3f 40 53 c7 3e 50 1a 1d 3f
       -0.3501603 0.5911387 0.38930702 0.61368275
0000c0 38 8c 0c 3e 03 12 33 3f 8b 0f 2a 3f 97 f3 21 3f
       0.13725364 0.6994936 0.66429967 0.63262314
0000d0 62 0e f6 3d 17 19 3e 3f cd 4f f2 3d 9c cd 24 3d
       0.12014462 0.74257034 0.11831627 0.040235147
0000e0 2c ab f4 3d 9b 1c 6a 3f d2 26 48 3f ec 3a 8f 3e
       0.11946711 0.914499 0.78184235 0.2797464
0000f0 f4 0c 82 3d 35 00 13 3f 8e 07 4f 3e a8 82 89 3f
       0.06350127 0.5742219 0.20217726 1.0742998

lstm.bias_hh_l1 f4 [64]
000000 eb ac e6 3d 09 71 43 3f 76 66 9e 3e 1a d3 c8 3e
       0.1126345 0.7634435 0.30937546 0.39223558
000010 b9 77 7f bd 26 94 c9 3e fb 6c 1f be cf d9 8f bc
       -0.062370036 0.3937084 -0.15568916 -0.017559914
000020 68 8f a6 bd 3b ad 6b 3f 38 f8 28 3f 23 fd 9e bc
       -0.08132821 0.92061204 0.6600375 -0.019407814
000030 78 a3 5e 3d b6 da f0 3e 12 26 85 3e 03 e5 55 3f
       0.054355115 0.47041863 0.26005608 0.8355257
000040 a2 ca b0 bd 07 ee b0 be d7 8e b6 3e 9a 78 61 bd
       -0.08632399 -0.345566 0.35655853 -0.055046655
000050 a1 0c 4c 3d ec 85 ba 3e c9 fc 99 3e db 31 94 3e
       0.04981673 0.364303 0.30075672 0.28944287
000060 49 9f 9d 3d 74 49 ec 3e f9 69 e2 bd e5 da 44 be
       0.07696397 0.4614979 -0.11055369 -0.19224127
000070 9c f5 66 3e 15 38 8e be 95 af 80 3e 2d 07 d3 3d
       0.2255463 -0.27777162 0.25133958 0.10304103
000080 63 f9 e5 bc 45 79 1a 3f c3 cd fa 3e 39 ef cb 3e
       -0.028073018 0.6034129 0.4898511 0.3983095
000090 38 9a e1 bc 09 98 a6 bd 5c 3a 0a 3e ad e8 55 3e
       -0.027539358 -0.08134467 0.13498825 0.2088954
0000a0 93 30 24 be 06 8f 18 3f 27 9f d1 3e 4c c6 27 3e
       -0.16034155 0.59593236 0.40941736 0.16384238
0000b0 48 6d 0c be bf 0d 1b 3f f5 b0 c7 3e b1 23 61 3f
       -0.13713562 0.6056785 0.39002195 0.87945086
0000c0 dd 7a 55 bc 25 37 82 3f 89 e6 29 3f bb 03 19 3f
       -0.013029781 1.0173079 0.66367394 0.5977132
0000d0 f1 f1 d0 bd 37 dd a8 3e 5d ce 99 3e 9e 95 bc 3d
       -0.10202397 0.32981274 0.30040255 0.09208225
0000e0 42 b9 50 3e fe 87 64 3f 46 6c 51 3f fd af 8d 3b
       0.2038317 0.8927001 0.8180584 0.004323958
0000f0 23 4f 65 bd df 56 dc 3e 27 62 f5 3e ad 0e 57 3f
       -0.055983674 0.43035027 0.47926447 0.8400677

fc.weight f4 [1, 16]
000000 50 6e af bf 21 6f 03 41 e6 e8 13 c0 a1 51 c5 40
       -1.370554 8.214631 -2.31109 6.1662145
000010 ff 3a 07 bf c0 d6 a8 40 26 62 4a bf 45 cb 7d bf
       -0.52824396 5.2762146 -0.7905601 -0.9913829
000020 d8 ac 47 bf 58 4b e4 40 68 e8 fa 40 56 39 fb be
       -0.77998114 7.134197 7.84087 -0.4906718
000030 62 aa af 3d 2e 75 d5 40 61 96 d8 bf 9d f9 08 41
       0.0857742 6.670554 -1.6920892 8.560941
