logs/od600_prediction_rnn/weights_best.tar (torch, 7515 bytes, 11 tensors)

pre_fc.weight f4 [16, 11]
0	0xbda97351	-0.08273948
1	0x3d2714f1	0.040791456
2	0xbda67648	-0.08128029
3	0x3c15bf16	0.009139797
4	0xbe8e9b92	-0.27853066
5	0x3d99080c	0.07472238
6	0xbe711146	-0.23541746
7	0xbe48dcc4	-0.19615465
8	0xbe26b3de	-0.16279551
9	0x3e6215ae	0.22078583
10	0xbda1f9ce	-0.079089746
11	0xbe56140e	-0.20906088
12	0xbe64025d	-0.22266527
13	0xbcb5c8e1	-0.022190513
14	0x3d74b159	0.059739444
15	0x3f02eed9	0.511457
16	0x3d2c4148	0.042054445
17	0x3d7f0542	0.062260874
18	0x3d04b77e	0.032401554
19	0x3e4e5917	0.20151173
20	0x3fa20145	1.2656637
21	0x3f06a02c	0.5258815
22	0x3fd10898	1.6330748
23	0x3df8be36	0.12145655
24	0xbf9c5d3c	-1.2215953
25	0xbeb3ed0a	-0.35141784
26	0x3f5d5818	0.86462545
27	0x3f8447e4	1.0334439
28	0xbe41c59b	-0.18923037
29	0x3ecb374c	0.39690626
30	0xbdb571b0	-0.08859575
31	0xbf8bf4bd	-1.0934063
32	0xc02ee5ee	-2.7327838
33	0x3f3cceed	0.73753244
34	0xbeae9688	-0.3409922
35	0x3ea3f3b7	0.32021877
36	0xbd273d52	-0.040829964
37	0xbc362d6a	-0.011119226
38	0x3df433c0	0.11923933
39	0xbe962090	-0.29321718
40	0xbf110bb5	-0.5665849
41	0xbdbe0119	-0.09277553
42	0xbeac4bfa	-0.33651716
43	0x3fa5bb80	1.2947845
44	0x3f0687cf	0.5255098
45	0xbea00bbb	-0.3125895
46	0x3ef9f84f	0.48822257
47	0x3c8de70a	0.017322082
48	0x3b888a3a	0.0041668685
49	0x3ea6903c	0.32531917
50	0x3d7fdca2	0.06246627
51	0xbe780987	-0.24222384
52	0x3c8611e3	0.01636595
53	0x3efc5ad8	0.49288058
54	0xbf037bdf	-0.5136089
55	0xbf40c765	-0.7530425
56	0xbf35c8ad	-0.7100933
57	0xbf6371d8	-0.88845587
58	0x3f18168d	0.5940941
59	0xbf16b846	-0.5887493
60	0x3f40a605	0.75253326
61	0xbbb0009b	-0.005371166
62	0xbe3cc3c6	-0.18434057
63	0xbe85e357	-0.2615001
64	0xbfa75dac	-1.3075461
65	0xbe6f7fdd	-0.2338862
66	0xbf3283ee	-0.6973256
67	0xbf7de6ba	-0.99180186
68	0x3f81946c	1.012342
69	0xbf38cf35	-0.7219117
70	0x3f005da3	0.5014288
71	0xbf2d8568	-0.67781687
72	0xbe464a2d	-0.19364233
73	0x3ea40a2f	0.3203902
74	0x3f0c5612	0.5481883
75	0x4026f271	2.6085474
76	0x4030e3de	2.763908
77	0xbe5ea67f	-0.217432
78	0x3c0792bf	0.008274733
79	0x3ecf5e10	0.40501451
80	0xbd855c7e	-0.06511782
81	0xbeb4d457	-0.35318252
82	0xbe984ef9	-0.2974775
83	0xbe177d95	-0.14794
84	0xbded8e16	-0.11599366
85	0xbd8f5b44	-0.069998294
86	0xbc97940e	-0.018503215
87	0x3eb5d226	0.35511893
88	0x3f17bec1	0.5927544
89	0x3ee10bc8	0.439543
90	0x3dc640e1	0.096803434
91	0x3e035731	0.1282623
92	0xbfd4359b	-1.6578859
93	0xbf853d59	-1.0409347
94	0xbe38e513	-0.18056135
95	0x3f670c51	0.9025317
96	0x3ef80574	0.4844166
97	0x3f2165e8	0.6304612
98	0x3f51f7c1	0.8201867
99	0xbfc7e8b8	-1.5617895
100	0x3f7dd118	0.99147177
101	0xbeaee3f3	-0.34158286
102	0xbeda3c28	-0.4262402
103	0xbf61e5e3	-0.88241404
104	0xbfdb1d16	-1.7118251
105	0x3d02b00a	0.031906165
106	0xbf051bd8	-0.5199561
107	0x3e35941e	0.17732283
108	0xbe7ad8ef	-0.24496816
109	0xbbfdc942	-0.007744939
110	0x3f109c20	0.5648823
111	0x3e954fae	0.29162353
112	0xbd9ef82f	-0.07762181
113	0xbcc5cce1	-0.024145545
114	0xbfcad216	-1.5845363
115	0xbefded2b	-0.49595007
116	0xbeca7329	-0.39540985
117	0x3db87e26	0.09008436
118	0x3e3fb985	0.18723114
119	0x3e38bfb5	0.1804188
120	0x3f307598	0.68929434
121	0xbee01f87	-0.43774053
122	0xbe6dd7d4	-0.23226863
123	0x3f19d347	0.6008801
124	0x3e3eed73	0.18645267
125	0x3e0374b6	0.1283749
126	0x3e86312c	0.2620939
127	0xbc064659	-0.008195483
128	0x3beb30de	0.0071774563
129	0x3ef15537	0.47135326
130	0x3f5e87ff	0.86926264
131	0x4012008f	2.281284
132	0x3f568de0	0.83810234
133	0xbf1dbe06	-0.6161808
134	0xbdfac115	-0.12243859
135	0xbf0c1030	-0.547122
136	0x3fab3570	1.3375683
137	0x3f7da560	0.9908047
138	0xbe42a45c	-0.1900801
139	0xbecd2fd9	-0.40075567
140	0xbde462d4	-0.111516625
141	0xbe876ac1	-0.26448634
142	0xbfeb744b	-1.8394865
143	0xbec75620	-0.38932896
144	0x3f5b4ce5	0.85664207
145	0xbd5bb26d	-0.053636957
146	0xbf2e49a1	-0.680811
147	0xbe96c570	-0.29447508
148	0xbf7d158d	-0.9886101
149	0x3d98889a	0.0744793
150	0xbeebbd9c	-0.46043098
151	0xbddf3762	-0.10899235
152	0xbd515877	-0.051109757
153	0x3e3b612d	0.18298788
154	0xbfc70f2b	-1.5551504
155	0xbe008895	-0.12552102
156	0xbf95c865	-1.170178
157	0x3f4a3ee5	0.7900222
158	0x3e0a995b	0.13535063
159	0x3fad99c0	1.3562546
160	0x3f053b48	0.5204358
161	0xbe3f01b7	-0.18652998
162	0xbe168e04	-0.14702612
163	0xbdd08c59	-0.10183019
164	0xbe81a9f4	-0.25324976
165	0x3f9633c4	1.1734548
166	0xbea294ba	-0.31754094
167	0x3f5ebc0b	0.8700568
168	0x3c55f898	0.013059758
169	0xbd0258e6	-0.03182306
170	0x3e583a7e	0.21116063
171	0xbf349538	-0.7054019
172	0xbda6d454	-0.08145967
173	0xbd29891f	-0.041390534
174	0xbecddec4	-0.4020902
175	0xbc6f3581	-0.014600159

pre_fc.bias f4 [16]
0	0xbed27494	-0.41104567
1	0xbedb55ab	-0.42838797
2	0x3f3c278e	0.73497856
3	0xbe6289dc	-0.22122902
4	0x3db0c49f	0.086312525
5	0x3eb05ed1	0.3444734
6	0xbf2949e3	-0.6612837
7	0xbecc1f35	-0.3986756
8	0xbf0f2e97	-0.55930465
9	0x3e89cdca	0.26914817
10	0xbee3a2e9	-0.44460228
11	0xbea0aaa8	-0.313802
12	0x3e5f09e4	0.21781117
13	0xbe825079	-0.2545202
14	0xbf0520d7	-0.52003235
15	0x3e3f82b3	0.18702202

rnn.weight_ih_l0 f4 [16, 16]
0	0x3da2a976	0.07942478
1	0xbf089522	-0.5335256
2	0x3f5a71ad	0.85329705
3	0xbf1fbb55	-0.6239522
4	0xbd87d972	-0.06633271
5	0x3f8063df	1.0030478
6	0xbf9edfd1	-1.2412053
7	0x3d8b550d	0.068033315
8	0xbe1add75	-0.15123542
9	0x3f2b1943	0.6683542
10	0x3e2a9d9c	0.16661686
11	0xbf90cc6f	-1.1312388
12	0x3ea483f3	0.3213192
13	0x3e39464f	0.18093227
14	0x3fd4963a	1.6608346
15	0xbe95bcb8	-0.29245543
16	0x3b3c9535	0.0028775458
17	0x3f06485b	0.52454156
18	0x3f7b598c	0.9818351
19	0x3f3d3900	0.739151
20	0x3f03fd9b	0.51558846
21	0x3e12e6e4	0.1434589
22	0x3f9f5bec	1.2449927
23	0xbd528905	-0.051400203
24	0x3edc630f	0.43044326
25	0xbfc48e50	-1.535593
26	0x3ebab965	0.3646957
27	0x3f31290c	0.6920326
28	0x3f8eed4c	1.1166167
29	0xbf6f51cf	-0.93484205
30	0x3e9940c1	0.29932216
31	0x3ea4bc0f	0.32174727
32	0x3e1b2820	0.15152025
33	0xbdb87fd8	-0.09008759
34	0x3f4b29ea	0.7936083
35	0x3eac879f	0.3369722
36	0x3eef3fb2	0.46728283
37	0x3ea1ba25	0.3158733
38	0x3eb309a0	0.3496828
39	0xbd66e86f	-0.05637401
40	0xbe67e4d6	-0.22645888
41	0x3eae7306	0.3407213
42	0x3e9ee6da	0.310355
43	0x3d8eae86	0.069668815
44	0x3f774ee4	0.9660475
45	0x3e11a94c	0.14224738
46	0xbccc83dd	-0.024965221
47	0x3ee4378c	0.4457363
48	0x3dfb18b1	0.12260569
49	0x3e894e4e	0.26817554
50	0x3f4d6b65	0.80241996
51	0x3f360851	0.7110644
52	0x3f326cf3	0.69697493
53	0xbe4b0f6c	-0.19830102
54	0x3f2fa0ce	0.68604743
55	0xbdef5de8	-0.11687833
56	0x3e26130a	0.162182
57	0xbf6aed0c	-0.91767955
58	0x3ec0ef2f	0.37682483
59	0x3eaf52ba	0.34242803
60	0x3fa30b2d	1.2737786
61	0xbf0f7ef9	-0.5605312
62	0x3e5a4005	0.21313484
63	0x3ec4e430	0.38455343
64	0x3d09e2c8	0.03366354
65	0xbf8ebb4d	-1.115091
66	0xbeb02b62	-0.34408098
67	0xbfb286bc	-1.3947368
68	0xbf8cc597	-1.09978
69	0x3f86ea13	1.0540184
70	0xc0279b7d	-2.6188653
71	0x3e98b619	0.2982643
72	0xbdff214b	-0.12457522
73	0x3f78edae	0.9723767
74	0xbf113d8a	-0.56734526
75	0xbfa641f1	-1.2988874
76	0xbf5c29f1	-0.860015
77	0x3e9c2328	0.30495572
78	0x3f61cbd2	0.8820163
79	0xbec8785b	-0.39154324
80	0x3d58bd8f	0.052915152
81	0xbf50630a	-0.8140112
82	0xc0192c80	-2.393341
83	0xbfdb7be6	-1.7147186
84	0xbf5958b7	-0.84900993
85	0x3f90e626	1.1320236
86	0xc013d6f8	-2.3099957
87	0xbdbee924	-0.09321812
88	0x3eda7588	0.42667794
89	0x3fa3a0f1	1.278349
90	0x3ef61285	0.48061004
91	0xbf8fed29	-1.124425
92	0xc02204a1	-2.5315325
93	0x3f183fdf	0.5947246
94	0x3f293059	0.660894
95	0xbe87237c	-0.2639426
96	0xbe4fe496	-0.20302042
97	0xbf24763f	-0.6424293
98	0x3f2dca66	0.6788696
99	0x3dbb8315	0.09155861
100	0x3f0551e9	0.5207811
101	0x3dd5429d	0.10413096
102	0xbf900287	-1.1250771
103	0xbd6fef3e	-0.05857777
104	0xbfabc652	-1.3419898
105	0xbebaf0f0	-0.36511946
106	0xbe4adb61	-0.19810249
107	0xbef4e48f	-0.47830626
108	0x3e98550c	0.29752386
109	0xbe00765b	-0.12545149
110	0x3f5e999f	0.8695316
111	0x3fbc2295	1.4698054
112	0xbd8ec389	-0.06970889
113	0x3eef0c26	0.46688956
114	0x3f324480	0.6963577
115	0x3f100ac1	0.5626641
116	0x3f272099	0.65284115
117	0x3ed5abc4	0.4173261
118	0x3f46e699	0.77695614
119	0x3e3ddfa9	0.18542351
120	0xbe96849b	-0.29398045
121	0x3f07386e	0.5282048
122	0x3e98a1f1	0.2981105
123	0xbc0e6a54	-0.008692343
124	0x3fada66d	1.3566414
125	0x3d1869b8	0.037210196
126	0x3e3955e1	0.18099166
127	0x3e6cc4e0	0.23121977
128	0xbe123af9	-0.14280309
129	0x3cf37620	0.029719412
130	0x3f50f344	0.81621194
131	0x3e1851b3	0.14874916
132	0x3ea08af9	0.31356028
133	0x3eba324e	0.36366504
134	0xbcef028d	-0.029176021
135	0x3d8297d1	0.06376613
136	0xbf2bba6e	-0.67081344
137	0x3ef3414e	0.4751076
138	0x3d77cd11	0.0604983
139	0xbf2a4b07	-0.6652073
140	0x3f0556a5	0.52085334
141	0x3eeaaae8	0.45833516
142	0x3eb9f979	0.36323145
143	0xbc7eb0d7	-0.015545092
144	0xbe18b4a8	-0.14912665
145	0x3e1b8bfe	0.15190122
146	0x3f412503	0.754471
147	0x3f24e99f	0.6441898
148	0x3edfb627	0.4369366
149	0x3f0c9412	0.5491344
150	0x3eb0e934	0.3455292
151	0xbd7caa7e	-0.06168603
152	0xbe765faf	-0.24059938
153	0x3f0f7e0b	0.560517
154	0x3e9d416c	0.30713975
155	0x3caa9af0	0.020825833
156	0x3fa6e870	1.3039684
157	0x3e908f2b	0.28234228
158	0x3e859620	0.260911
159	0x3dbcd4fe	0.092203125
160	0x3e57634e	0.21033975
161	0xbe6ef602	-0.23336032
162	0xbf57864f	-0.84189314
163	0xbe65fb7c	-0.22459215
164	0xbe761d1f	-0.24034546
165	0xbee7f091	-0.45300725
166	0xbe9cfd0a	-0.30661803
167	0xbdb67916	-0.08909814
168	0x3e855c65	0.26047054
169	0xbec565c0	-0.38554192
170	0xbec168f2	-0.3777538
171	0xbc904123	-0.017609185
172	0xbf08442b	-0.53229016
173	0xbdb529ba	-0.08845849
174	0xbe3b11e0	-0.18268538
175	0x3d1a8057	0.03772005
176	0x3dfe36b0	0.124127746
177	0xbeee8ffb	-0.46594223
178	0x3fb6a675	1.4269549
179	0xbf75ba17	-0.95987076
180	0x3efc27b2	0.49249035
181	0x3f07d43b	0.53058213
182	0xc0013f0c	-2.019473
183	0xbe42d6e2	-0.19027284
184	0xbf2c6701	-0.6734467
185	0x3f5320cb	0.82471913
186	0xbeeb92fa	-0.46010572
187	0xbef33d66	-0.4750778
188	0x3f81d369	1.0142642
189	0x3edbee24	0.42955124
190	0x3f77da41	0.96817404
191	0xbe212af7	-0.15739046
192	0xbe860db5	-0.26182333
193	0xbeb0cca6	-0.34531134
194	0xbf4a154d	-0.7893875
195	0xbf75274f	-0.95763105
196	0xbec6b5e3	-0.38810644
197	0xbd11fa61	-0.03563917
198	0xbfb6c6b7	-1.4279393
199	0x3d5cf0e2	0.05394066
200	0xbaf46283	-0.0018645081
201	0x3f07ebac	0.5309398
202	0x3eced817	0.40399238
203	0xbf65bb9d	-0.897394
204	0xbf824f01	-1.018036
205	0x3f1dc635	0.61630565
206	0xbf65d80f	-0.89782804
207	0xbeb535d0	-0.35392618
208	0x3e437673	0.19088154
209	0xbe61dee4	-0.22057682
210	0xbf44b594	-0.76839566
211	0xbdfedbdf	-0.12444281
212	0xbe6d653f	-0.23183154
213	0xbec6c2b2	-0.38820416
214	0xbd7bb864	-0.061455145
215	0xbe259cac	-0.16173047
216	0x3e2d5508	0.16926968
217	0xbe4d2eae	-0.20037338
218	0xbe2df17a	-0.16986647
219	0x3c60e1b6	0.013725689
220	0xbf16d01a	-0.5891129
221	0xbd9b6aba	-0.07588716
222	0xbe911d9a	-0.28342897
223	0xbec1531f	-0.3775873
224	0xbd9cca31	-0.076557525
225	0x3f41a9df	0.7564983
226	0xbf22d0b4	-0.63599706
227	0x3f8a8a5c	1.0823474
228	0x3f444c8f	0.7667932
229	0xbf9a07be	-1.2033613
230	0x400d6c25	2.2097256
231	0xbd9625a1	-0.07331396
232	0xbe05d0bd	-0.13067909
233	0xbf6632d1	-0.8992129
234	0xbe17e0d5	-0.1483186
235	0x3fa603e7	1.2969941
236	0x3f2eb310	0.6824198
237	0xbd326374	-0.043551877
238	0xbe4c48ee	-0.19949695
239	0xbdae1e2d	-0.08501849
240	0xbb6b8f2e	-0.0035943496
241	0x3e2fd739	0.17171945
242	0x3f1e8aa4	0.619303
243	0x3f1fc72a	0.62413275
244	0x3ec75694	0.3893324
245	0x3eb7f931	0.35932305
246	0x3eeb0f46	0.4591009
247	0xbe49d311	-0.19709422
248	0x3d4b253f	0.049596068
249	0x3f0d04b1	0.55085284
250	0x3d35a3ff	0.044345852
251	0xbe86b61a	-0.26310807
252	0x3f861463	1.0474972
253	0xbb8ae1d2	-0.0042383457
254	0x3e870b07	0.263756
255	0x3c37e755	0.011224587

rnn.weight_hh_l0 f4 [16, 16]
0	0x3f37598e	0.71621025
1	0xbe994a59	-0.29939535
2	0xbe0e2077	-0.13879572
3	0xbecd4f3f	-0.40099522
4	0x3e79afa7	0.24383412
5	0x3ecdf48b	0.40225634
6	0x3dc0b8a4	0.094102174
7	0x3e8730c0	0.2640438
8	0xbe17b978	-0.14816844
9	0x3ea52e35	0.32261816
10	0xbd7f1fda	-0.062286235
11	0x3f805bdf	1.0028037
12	0x3ea7a611	0.32743886
13	0xbe51cae2	-0.2048755
14	0xbf3340ee	-0.7002095
15	0xbd6f036f	-0.058352884
16	0xbe053940	-0.1301012
17	0x3ddd5ba6	0.10808496
18	0x3e3dd9bc	0.1854009
19	0x3f0ceb03	0.550461
20	0xbebbde89	-0.36693218
21	0xbeb7b6f6	-0.35881776
22	0xbda0b9ce	-0.078479394
23	0xbd0d13be	-0.034442656
24	0xbd2c1430	-0.04201144
25	0xbe5ce051	-0.21569945
26	0xbe90e4ab	-0.2829946
27	0xbf19b46d	-0.6004093
28	0xbf011cbf	-0.5043449
29	0xbe1f8e67	-0.15581666
30	0x3e942852	0.28937012
31	0x3e4674f5	0.19380553
32	0xbe50ee4a	-0.204034
33	0xbe62ac77	-0.22136103
34	0x3d252cee	0.04032605
35	0x3e7488de	0.23880336
36	0xbeb99510	-0.36246538
37	0xbe80777a	-0.25091153
38	0xbe41c16e	-0.18921444
39	0x3ebf60ba	0.37378484
40	0x3ea1d94f	0.31611106
41	0x3e66b960	0.22531652
42	0xbe46a332	-0.19398192
43	0xbc476568	-0.012170173
44	0xbdcce385	-0.100043334
45	0xbdf667e1	-0.12031532
46	0x3cf82bdb	0.03029435
47	0x3da8c3e1	0.08240486
48	0xbec5d3b1	-0.3863807
49	0x3eb1a564	0.34696496
50	0x3da8fae6	0.0825098
51	0x3e3d28c7	0.18472587
52	0xbee6d4a6	-0.45084113
53	0xbf069b7b	-0.52580994
54	0xbd8204da	-0.063485816
55	0x3deb9635	0.11503259
56	0xbde885e2	-0.11353661
57	0xbe437ce8	-0.19090617
58	0xbe2c4fca	-0.16827312
59	0xbe408dc2	-0.18804076
60	0xbe71219f	-0.23547982
61	0x3e766246	0.24060926
62	0x3eb7a0b2	0.35864788
63	0xbca89544	-0.020578988
64	0x3e0f58d4	0.13998729
65	0xbf3b298f	-0.7311029
66	0xbd6211ef	-0.055192884
67	0xbea8aa6a	-0.32942516
68	0x3f1a6b9e	0.6032046
69	0x3f759519	0.9593063
70	0xbe4c7e5e	-0.1997008
71	0xbea64cba	-0.32480413
72	0xbda5a595	-0.08088223
73	0xbe29ee3d	-0.16594787
74	0xbd251711	-0.0403052
75	0x3f100862	0.5626279
76	0x3e788b85	0.24271972
77	0x3ebe7736	0.37200326
78	0xbf02be9e	-0.5107211
79	0xbe644f7e	-0.22295949
80	0x3f5f0080	0.8711014
81	0xbe7d43e5	-0.24732931
82	0xbae1632d	-0.0017195694
83	0xbd9a6188	-0.07538134
84	0x3f0412d5	0.51591235
85	0xbcc66440	-0.024217725
86	0xbd08ebca	-0.03342799
87	0xbe1bf07c	-0.15228456
88	0x3dd20b7b	0.10256096
89	0x3ddb9cdc	0.10723278
90	0x3e14af50	0.14520001
91	0x3f722b81	0.9459763
92	0x3e31919b	0.173407
93	0x3e6beee8	0.23040354
94	0xbf491e1d	-0.78561574
95	0x3e57d423	0.21077017
96	0x3bbdb20e	0.005789048
97	0x3de58279	0.11206526
98	0x3eb78b80	0.35848618
99	0x3e00c771	0.12576081
100	0xbe2d7a8a	-0.16941276
101	0x3d28444e	0.041080765
102	0x3f80d3cd	1.0064636
103	0x3e41fce1	0.18944122
104	0x3ed3b46d	0.4134859
105	0x3e466aad	0.19376631
106	0xbe9052ed	-0.28188267
107	0x3eb77990	0.35834932
108	0x3e5dad45	0.21648128
109	0xbdf3381f	-0.118759386
110	0x3dad06c4	0.08448556
111	0x3e262b08	0.16227353
112	0xbe90b6d4	-0.28264487
113	0x3eb2292e	0.34797043
114	0x3e4839b2	0.19553259
115	0x3dd69881	0.104783066
116	0xbeb05598	-0.34440303
117	0xbeabfd22	-0.33591563
118	0x3e31f838	0.17379844
119	0x3f10e61a	0.5660111
120	0x3ede8f32	0.43468624
121	0x3ea97318	0.33095622
122	0xbf0386b4	-0.51377416
123	0x3e59fb2f	0.21287225
124	0xbce8a4ea	-0.02839895
125	0xbf1c8d6d	-0.611533
126	0xbd7618c6	-0.06008222
127	0x3ebbd07d	0.366825
128	0x3d544ac6	0.051829122
129	0xbe60cdc8	-0.219535
130	0x3bc716d6	0.0060757203
131	0xbe40a0fa	-0.18811408
132	0xbe838e61	-0.25694564
133	0x3dbdd543	0.09269192
134	0x3dea3034	0.11434975
135	0x3bd813e4	0.006594168
136	0xbd16722f	-0.036729988
137	0x3e97a3a3	0.29617032
138	0xbe409cbb	-0.18809788
139	0x3ecb8b29	0.39754608
140	0xbe7d840e	-0.24757406
141	0xbe5b6030	-0.21423411
142	0xbd7070c7	-0.058701303
143	0x3d4d2199	0.05008087
144	0xbedc4358	-0.4302013
145	0x3e373153	0.1788991
146	0x3eafce14	0.34336913
147	0x3e1cde27	0.1531912
148	0xbe0b8e8c	-0.13628596
149	0xbd803982	-0.06260969
150	0xbd389d58	-0.04507193
151	0x3f047095	0.51734287
152	0x3d30d792	0.043174334
153	0xbd7f6462	-0.062351592
154	0xbe197004	-0.14984137
155	0xbe195c2d	-0.14976569
156	0x3db6bf4d	0.089232065
157	0xbe0e21cb	-0.13880078
158	0x3ea1a09b	0.31567845
159	0x3ec74b6b	0.38924727
160	0x3ec8d9cb	0.39228663
161	0x3e70cc58	0.23515451
162	0xbeb34e71	-0.35020784
163	0x3e1694cd	0.147052
164	0xbe274f6a	-0.16338888
165	0x3ee844f1	0.45365098
166	0xbe9a526e	-0.30141014
167	0xbf03b895	-0.51453525
168	0xbe206976	-0.1566523
169	0xbe0d91ae	-0.13825104
170	0xba878818	-0.0010340242
171	0xbe1c8254	-0.15284091
172	0x3e1d0ce5	0.1533695
173	0x3c5a1ff2	0.01331328
174	0xbc3b1f28	-0.011421002
175	0xbefd24e5	-0.4944221
176	0x3e1a552d	0.15071554
177	0xbe322b10	-0.1739924
178	0xbe7a4a43	-0.24442391
179	0xbe20cca5	-0.15703066
180	0x3e9fbc2e	0.31198257
181	0x3e12e4a3	0.1434503
182	0x3f264a7d	0.6495741
183	0x3e29619a	0.16541138
184	0xbe44d495	-0.19221719
185	0xbdc3f891	-0.09568895
186	0x3e9c80fa	0.3056715
187	0x3fbbc6c8	1.4670038
188	0x3e2bda6e	0.16782543
189	0x3e3ce87e	0.18448064
190	0xbe9d8b97	-0.3077056
191	0xbd6f6178	-0.058442563
192	0xbe35b08c	-0.17743129
193	0xbf0889d3	-0.53335303
194	0xbeedd3ed	-0.4645075
195	0xbe8c8e95	-0.2745253
196	0x3e18c6b5	0.1491955
197	0x3e113de4	0.14183766
198	0x3d2e27df	0.042518493
199	0xbe84a804	-0.25909436
200	0xbebcdc76	-0.36886948
201	0x3dd7d20a	0.10538109
202	0x3e57bb4a	0.21067539
203	0x3e3b4b57	0.18290459
204	0x3f18cdf4	0.5968926
205	0x3df6b9fd	0.12047193
206	0xbe1841a1	-0.14868785
207	0x3d345c73	0.04403348
208	0x3e9abe87	0.30223486
209	0xbd231876	-0.03981825
210	0xbe2550e3	-0.16144137
211	0xbe487a39	-0.19577874
212	0xbcfbcd45	-0.030737529
213	0x3df04856	0.11732547
214	0xbcd2cc20	-0.0257321
215	0xbe08e344	-0.13367945
216	0xbe1f52aa	-0.15558878
217	0xbe64f779	-0.22360028
218	0x3e973de9	0.2953942
219	0xbdeff5c9	-0.11716802
220	0x3e8156e3	0.25261602
221	0x3ec6b27f	0.38808057
222	0x3b9fa314	0.0048717353
223	0xbe78f6b7	-0.24312864
224	0xbe9f86f2	-0.31157643
225	0x3e142572	0.14467409
226	0xbdd5aee8	-0.10433751
227	0x3e495527	0.1966139
228	0x3c003640	0.007825434
229	0xbdd59cb5	-0.1043028
230	0xbe61e0a0	-0.22058344
231	0xbd102ea8	-0.035200745
232	0xbe56cfc6	-0.20977697
233	0xbe80c5f5	-0.2515103
234	0xbdbc505b	-0.09195014
235	0x3d6e443d	0.058170546
236	0xbe968c33	-0.2940384
237	0xbd818db9	-0.063258596
238	0x3e7725e1	0.24135543
239	0xbda22763	-0.07917669
240	0xbea1ccab	-0.31601462
241	0x3d246b3f	0.04014134
242	0x3ec15646	0.37761134
243	0xbd0b3c5d	-0.033993114
244	0xbecdf256	-0.4022395
245	0xbe95ee97	-0.29283592
246	0x3e05fe0a	0.1308519
247	0x3eb7dd93	0.35911235
248	0x3eb27903	0.3485795
249	0x3e7000c0	0.23437786
250	0xbe10a847	-0.14126693
251	0x3e887d1b	0.26657948
252	0x3cad0f06	0.021125328
253	0xbf0950b7	-0.53638786
254	0x3db919e2	0.0903814
255	0x3e98d246	0.29847926

rnn.bias_ih_l0 f4 [16]
0	0x3cf3d8b9	0.029766427
1	0x3ee312f9	0.44350412
2	0x3f0f641c	0.5601213
3	0x3b814e4e	0.003946102
4	0xbf10bce1	-0.56538206
5	0xbd4d3625	-0.050100464
6	0x3e9b43db	0.30325207
7	0x3eeeab29	0.4661496
8	0x3e9ba62d	0.3040022
9	0x3ebb8ddc	0.36631668
10	0xbf1e3962	-0.6180631
11	0x3d016730	0.031592548
12	0xbca462d1	-0.02006665
13	0xbef0bdc5	-0.47019783
14	0xbdcd99b2	-0.10039081
15	0x3ec5cede	0.3863439

rnn.bias_hh_l0 f4 [16]
0	0x3e563e30	0.2092216
1	0x3ee46e95	0.44615617
2	0x3f2fd664	0.6868651
3	0x3d84f51b	0.06492063
4	0xbee598d3	-0.44843158
5	0xbe40f507	-0.1884347
6	0x3eb4cc1e	0.3531198
7	0x3e9a0dd2	0.3008867
8	0x3e98330a	0.2972644
9	0x3e268c41	0.1626444
10	0xbef1f1fb	-0.4725493
11	0xbcbb8545	-0.022890696
12	0xbd4871ff	-0.04893684
13	0xbf369ae9	-0.71330124
14	0x3e12199f	0.14267586
15	0x3e5849ac	0.21121854

rnn.weight_ih_l1 f4 [16, 16]
0	0xbf93ee47	-1.1557091
1	0x3f3646b4	0.71201634
2	0xbe964c53	-0.29355106
3	0xbdb7a1c3	-0.089664005
4	0x3ebf2b46	0.37337703
5	0xbe9ffa46	-0.3124563
6	0xbf3f55e4	-0.74740434
7	0xbfabbf34	-1.3417726
8	0xbed052cc	-0.4068817
9	0xbf8fed91	-1.1244375
10	0x3e2bea24	0.16788536
11	0xbf278869	-0.6544252
12	0xbf05dfb8	-0.5229449
13	0x3f423caf	0.75873846
14	0x3f79a673	0.97519606
15	0xbf7244bf	-0.9463615
16	0xbf6994fd	-0.91242963
17	0x3eefa550	0.4680581
18	0xbf5c7c2d	-0.8612698
19	0xbec369cc	-0.38166654
20	0x3e016584	0.12636381
21	0xbe47eeef	-0.1952474
22	0xbe90cdb6	-0.28281945
23	0xbf25fc4f	-0.6483812
24	0xbf2425f6	-0.64120424
25	0xbf283b19	-0.65715176
26	0x3e789e98	0.24279249
27	0xbfad6bad	-1.3548485
28	0x3eb697b0	0.35662603
29	0x3f4311fe	0.7619933
30	0x3f79bc67	0.97553104
31	0xbf4df86b	-0.8045718
32	0xbe7e2bbd	-0.24821372
33	0x3f940203	1.1563114
34	0x3b2c2ab0	0.002627056
35	0x3efcbad6	0.49361295
36	0xbf735ec2	-0.95066464
37	0xbf1e1f51	-0.61766535
38	0xbdccfccc	-0.10009155
39	0x3e326f79	0.17425336
40	0x3e78b857	0.2428907
41	0x3e7fe371	0.24989106
42	0xbd47d195	-0.048783857
43	0x3d7218c0	0.059105635
44	0xbfa66d2d	-1.3002068
45	0x3c1e7b9f	0.009673028
46	0x3e53ffc3	0.20703034
47	0x3ea8245b	0.32840237
48	0xbfc2ed97	-1.5228757
49	0x3f085482	0.5325395
50	0x3f05655e	0.521078
51	0x3ece1732	0.40252072
52	0xbf58aff0	-0.8464346
53	0xbf39a2f1	-0.72514254
54	0xbf14b165	-0.5808318
55	0xbf07e9bf	-0.53091043
56	0x3f0f337c	0.55937934
57	0xbf019294	-0.50614285
58	0xbe8650cd	-0.2623352
59	0xbfce4d6e	-1.611738
60	0xbd16abcf	-0.036784943
61	0xbd4e93cf	-0.05043393
62	0x4006697e	2.1001887
63	0xbef40cae	-0.47665924
64	0x3de0fb5e	0.109854445
65	0xbe895b2f	-0.2682738
66	0xbf73b137	-0.95192283
67	0xbf7b0a09	-0.9806219
68	0xbd346c6d	-0.044048715
69	0x3eb9759e	0.36222547
70	0xbf8735a9	-1.0563251
71	0xbe9ca0a5	-0.30591312
72	0xbdba7dd5	-0.09106032
73	0xbea8ce6a	-0.3296998
74	0x3d3a16cb	0.045431893
75	0xbf295df5	-0.6615899
76	0x3d04d1d2	0.032426663
77	0x3eca3aa9	0.3949788
78	0x3e2ffa26	0.17185268
79	0xbe9355aa	-0.28776294
80	0xbe83cb5e	-0.25741094
81	0xbd55fd0c	-0.052243277
82	0xbf1034f0	-0.56330776
83	0xbee53988	-0.44770455
84	0x3ef530fc	0.47888935
85	0xbef01b78	-0.46895957
86	0xbe99f5b4	-0.3007027
87	0xbf44a287	-0.768105
88	0xbefa98cb	-0.48944697
89	0xbf26f4b3	-0.6521713
90	0x3eb19989	0.3468745
91	0xbf215ad2	-0.63029206
92	0xbec5fab8	-0.38667846
93	0x3f4f8476	0.81061494
94	0x3eab7520	0.33487797
95	0xbf2893a0	-0.6585026
96	0x3db351ac	0.08755812
97	0x3f243e1c	0.6415727
98	0x3e8d3936	0.2758271
99	0x3e700c2e	0.23442146
100	0xbf8dd908	-1.1081858
101	0xbe8bceb9	-0.27306154
102	0x3ea59a4b	0.3234428
103	0x3e43bfb2	0.19116095
104	0x3ecdfdcd	0.40232697
105	0x3f1be3c8	0.6089444
106	0xbf2e9304	-0.6819308
107	0xbeef7b9e	-0.46774
108	0xbfb29524	-1.3951764
109	0xbf1714de	-0.59016216
110	0x3ef55cab	0.47922263
111	0x3e3ceca9	0.18449654
112	0xbd446d03	-0.047955524
113	0x3f74475c	0.95421386
114	0x3ead7f27	0.33886072
115	0x3eab0257	0.33400223
116	0xbf655d44	-0.8959544
117	0x3d9a72d8	0.07541436
118	0x3e54f334	0.207959
119	0x3f151b50	0.582448
120	0x3ede7bca	0.4345382
121	0x3ef028fd	0.46906272
122	0xbd0bf13e	-0.034165613
123	0xbe005c6e	-0.12535259
124	0xbf6120dd	-0.8794077
125	0xbe66f5e7	-0.22554742
126	0x3e0eb0bf	0.13934611
127	0x3ee90d38	0.45517898
128	0xbf466fb4	-0.77514195
129	0x3e6c7ef6	0.23095307
130	0xbf05ec30	-0.5231352
131	0xbef136b0	-0.47112036
132	0xbd8da2aa	-0.06915791
133	0xbe90d84e	-0.28290027
134	0xbfbff412	-1.4996359
135	0xbed6ad06	-0.4192888
136	0xbf1ea051	-0.61963373
137	0xbf2bd8af	-0.6712751
138	0x3ea6d5be	0.32584947
139	0xbfdc1070	-1.7192516
140	0x3e8c5bdf	0.27413842
141	0x3e2ebb66	0.17063674
142	0x3e998874	0.29986918
143	0xbf53e3d5	-0.8276952
144	0xbf5dc8f3	-0.8663475
145	0x3fb2ac7d	1.3958889
146	0xbd00a9bd	-0.031411875
147	0x3e7fec92	0.24992588
148	0xbfd0d620	-1.6315346
149	0xbfc9200f	-1.5712909
150	0x3e237727	0.15963422
151	0xbe1152f7	-0.14191805
152	0x3ce4dda4	0.027937718
153	0x3c9939f6	0.018704396
154	0xbed05cee	-0.406959
155	0xbf85826c	-1.0430427
156	0xbf9becab	-1.21816
157	0xbb150874	-0.0022740634
158	0x3fa56e80	1.2924347
159	0x3c733f9c	0.014846709
160	0xbfe2bc88	-1.7713785
161	0x3e3ac921	0.18240787
162	0x3e41408b	0.18872277
163	0xbd7ab87c	-0.061211094
164	0xbe1ce9fb	-0.15323631
165	0xbecefca8	-0.40427136
166	0xbe7b22e9	-0.24525036
167	0xbd8b6a16	-0.06807344
168	0xbe9a0b7f	-0.30086896
169	0xbf26ca7d	-0.6515272
170	0xbdcc8c14	-0.09987655
171	0xc00684e4	-2.101861
172	0x3f45b635	0.7723115
173	0x3e8978e1	0.26850036
174	0x3fe701b0	1.804739
175	0xbebfda6a	-0.37471324
176	0xbed1f6cf	-0.41008613
177	0xbcabbb65	-0.02096338
178	0xbf1198e2	-0.56873906
179	0xbe56c0d7	-0.20972
180	0x3dfac8a7	0.12245303
181	0xbd639488	-0.055561572
182	0xbfd3fe2c	-1.6561942
183	0xbf0e1d21	-0.555132
184	0xbee6c5fe	-0.4507293
185	0xbf033519	-0.51252896
186	0xbe34b8ec	-0.17648667
187	0xbfa64d0a	-1.299226
188	0x3e693381	0.22773553
189	0x3e489b14	0.19590408
190	0x3f2f6b03	0.6852266
191	0xbee19f41	-0.44066814
192	0x3ee44f50	0.4459176
193	0xbed40199	-0.4140747
194	0xbcd3adf6	-0.025839787
195	0xbe8b917e	-0.2725944
196	0x3ecf5962	0.4049788
197	0x3da038c5	0.07823328
198	0x3ef0d055	0.47033945
199	0xbdd9d893	-0.106370114
200	0xbe099e11	-0.13439204
201	0xbdaeccd9	-0.08535165
202	0x3e7de094	0.24792701
203	0xbe3744d9	-0.17897357
204	0xbee61c4e	-0.4494347
205	0x3e93f490	0.28897524
206	0xbe302fc7	-0.17205726
207	0xbde8e652	-0.11372055
208	0xbf5d0198	-0.86330557
209	0x3eeabc1a	0.45846635
210	0xbe97bf89	-0.29638317
211	0x3e364943	0.17801385
212	0x3d0aae43	0.033857595
213	0xbee5edc1	-0.44907954
214	0xbefd10eb	-0.4942697
215	0xbe9f1b96	-0.31075734
216	0xbe730c63	-0.23735194
217	0xbe8cbdd2	-0.2748857
218	0x3e850454	0.25979865
219	0x3f22bca4	0.6356909
220	0xbdc82266	-0.09772186
221	0x3e730a12	0.2373431
222	0x3f69b01c	0.91284347
223	0xbc95bd0c	-0.018278621
224	0xbe055eeb	-0.1302449
225	0x3e22a244	0.15882212
226	0xbf155960	-0.583395
227	0xbdcd521e	-0.10025428
228	0xbd574e1f	-0.052564736
229	0x3e6d3e60	0.23168325
230	0xbf6ffe9c	-0.9374788
231	0xbf30d785	-0.69078857
232	0xbeab7c28	-0.3349316
233	0xbefb0eab	-0.49034628
234	0x3dc65683	0.096844696
235	0xbfee10fc	-1.8598933
236	0xbccb7542	-0.024836186
237	0x3efd1cb8	0.49435973
238	0x3ebca4ac	0.36844385
239	0xbee24c5d	-0.44198886
240	0x3c8462ee	0.016160455
241	0xbe86435c	-0.26223266
242	0xbe815c74	-0.2526585
243	0xbf12fe26	-0.5741905
244	0x3f4e9202	0.8069154
245	0x3eae0fcf	0.33996436
246	0x3f57d32e	0.8430661
247	0xbe8438e8	-0.25824666
248	0xbf15d2f3	-0.5852501
249	0xbe3d8561	-0.18507911
250	0x3ef1f370	0.4725604
251	0x3e1ddf4e	0.15417215
252	0xbee6c3fa	-0.45071393
253	0x3f159715	0.5843366
254	0xbe30f136	-0.17279515
255	0xbde05dbe	-0.1095538

rnn.weight_hh_l1 f4 [16, 16]
0	0x3e406b1e	0.18790862
1	0xbe48147a	-0.19539061
2	0xbf2995fe	-0.66244495
3	0xbe7e6db7	-0.2484654
4	0xbf33a8c6	-0.701794
5	0x3f441a7e	0.76602924
6	0xbe99b440	-0.30020332
7	0xbf49343e	-0.7859534
8	0xbe8b537b	-0.27212128
9	0xbebbe863	-0.36700734
10	0xbe197714	-0.14986831
11	0x3eec929f	0.46205613
12	0x3eba0785	0.36333862
13	0x3f250160	0.64455223
14	0xbeb27fbc	-0.3486308
15	0x3e5e8acc	0.21732634
16	0x3f4609c0	0.7735863
17	0x3ebe0f4d	0.3712105
18	0xbf3432cd	-0.70390016
19	0xbe1b00db	-0.15137045
20	0xbd2aa2c1	-0.04165912
21	0x3ee06f58	0.4383495
22	0xbea88b19	-0.32918623
23	0xbf5c1e86	-0.85984075
24	0x3e384164	0.17993695
25	0xbdd070b3	-0.10177746
26	0xbe1e28ae	-0.15445206
27	0x3ec09d28	0.376199
28	0x3f06baf4	0.5262902
29	0x3f40d659	0.7532707
30	0xbe0567b2	-0.13027838
31	0x3e9f347c	0.3109473
32	0xbe0f880f	-0.14016746
33	0xbe4bd08e	-0.19903776
34	0x3fc6202b	1.5478567
35	0xbca33d8d	-0.01992681
36	0x3e669b21	0.22520114
37	0x3d10ab25	0.035319466
38	0x3f5f0f16	0.87132394
39	0x3f500ac8	0.8126645
40	0x3eaa6056	0.33276623
41	0x3f9f77be	1.2458417
42	0x3ebccfdc	0.36877334
43	0xbd31703d	-0.04331993
44	0xbe84febd	-0.259756
45	0x3cc2355e	0.023707088
46	0x3c64a330	0.013954923
47	0xbea10519	-0.31449202
48	0x3ef77c39	0.48336962
49	0x3ed062e7	0.40700457
50	0x3e5249c6	0.20535955
51	0x3db30359	0.08740873
52	0xbe6a43f5	-0.22877486
53	0xbe830d77	-0.2559621
54	0x3e65cd4f	0.224416
55	0x3d11ccdf	0.03559577
56	0x3f28d25f	0.65946
57	0x3f1acfeb	0.6047351
58	0x3f6cfcae	0.9257306
59	0x3d8ac808	0.06776434
60	0xbe93a04c	-0.28833234
61	0xbc25d59f	-0.010121732
62	0x3edb203f	0.4279804
63	0xbed08c7a	-0.40732175
64	0x3e6a04b9	0.22853364
65	0xbe0497e5	-0.12948568
66	0x3e1c3897	0.15255962
67	0xbe824e18	-0.25450206
68	0x3e0fd6e8	0.14046824
69	0xbe145ae1	-0.14487793
70	0x3da20c11	0.07912458
71	0xbdb9629a	-0.0905201
72	0x3e46f5b9	0.19429673
73	0xbddcff3f	-0.10790872
74	0xbe691d19	-0.22765006
75	0xbcb7251d	-0.022356564
76	0xbd67da30	-0.056604564
77	0xbdeea372	-0.116522685
78	0x3ebee935	0.37287298
79	0xbd7600c9	-0.060059343
80	0x3ed53cd7	0.4164798
81	0x3efb080b	0.49029574
82	0xbf113ee4	-0.5673659
83	0x3e82ea93	0.2556959
84	0xbf292d1f	-0.66084474
85	0x3ed72c93	0.42026195
86	0xbe5d54cd	-0.2161438
87	0xbe683181	-0.22675134
88	0xbe94c888	-0.29059243
89	0xbe6fdb64	-0.23423535
90	0x3e9d49cd	0.30720368
91	0x3e8945c0	0.26811028
92	0x3f012007	0.50439495
93	0x3ebd7db1	0.37009957
94	0xbee21f48	-0.4416449
95	0x3f35c77b	0.7100751
96	0xbee841c6	-0.4536268
97	0x3e88bbc6	0.2670576
98	0x3f008750	0.5020647
99	0x3d88737d	0.06662653
100	0x3bf38c23	0.007432477
101	0xbead5a1f	-0.3385782
102	0x3fe01f55	1.7509562
103	0x3f510340	0.81645584
104	0x3ebc136b	0.36733565
105	0x3f40f0d3	0.7536747
106	0x3decd0a1	0.1156323
107	0xbeec0dc4	-0.46104252
108	0xbea07e64	-0.31346428
109	0xbe899c0b	-0.26876864
110	0xbe1f15ed	-0.15535708
111	0x3e1b4cf9	0.15166081
112	0xbd94b751	-0.07261527
113	0xbdde8983	-0.10866072
114	0x3f7c48cd	0.98548585
115	0x3ee03765	0.43792263
116	0xbdea9567	-0.114542775
117	0x378ff72a	1.7162023e-05
118	0x3fa6ad8d	1.3021713
119	0x3f4b81d5	0.7949498
120	0x3e728bcc	0.23686141
121	0x3f63affb	0.889404
122	0x3e2c78f9	0.16843022
123	0xbebb39a7	-0.36567423
124	0xbe2729da	-0.16324559
125	0xbe18335b	-0.1486334
126	0x3e1f48dd	0.15555139
127	0x3cae69e0	0.02129072
128	0x3f97080e	1.1799333
129	0x3f94257b	1.1573938
130	0xbed5788a	-0.41693527
131	0x3dde3409	0.10849769
132	0x3e940d71	0.28916505
133	0x3efb880b	0.4912723
134	0x3c46e75d	0.012140122
135	0xbf0a834f	-0.5410661
136	0x3ecc7d47	0.3993933
137	0xbc8795ba	-0.016550887
138	0xb9239144	-0.00015599007
139	0x3eaddb4a	0.33956367
140	0x3ec7a081	0.38989642
141	0x3e54c0d9	0.2077669
142	0x3e9f2f89	0.31090954
143	0xbe0c07ed	-0.13674898
144	0x3ec00a94	0.3750807
145	0x3f329d0b	0.6977088
146	0x3e8cdb4e	0.27511066
147	0x3ec62d58	0.3870647
148	0x3c99cd76	0.01877473
149	0x3d972204	0.07379535
150	0x3ede2d9a	0.43394166
151	0xbd99f79c	-0.07517931
152	0x3f192c95	0.5983365
153	0x3f708645	0.9395488
154	0x3f2c3eed	0.6728352
155	0xbd8607da	-0.06544466
156	0x3dc4c894	0.0960857
157	0xbe9dbbd6	-0.3080737
158	0x3e7f2e53	0.24920015
159	0xbee61ec0	-0.44945335
160	0x3f58f1f8	0.84744215
161	0x3f35ce45	0.7101787
162	0x3ec50516	0.38480443
163	0x3e9511fd	0.29115286
164	0x3efceaed	0.49397984
165	0xbf188222	-0.59573567
166	0x3ed755c6	0.42057627
167	0xbe19507d	-0.1497211
168	0x3f73e283	0.95267504
169	0x3f832e53	1.0248512
170	0x3d3e2ac4	0.046427503
171	0xbdcd5b9e	-0.1002724
172	0xbe5ace7f	-0.21367835
173	0xbe88f50b	-0.26749453
174	0x3f9b1dc1	1.2118455
175	0xbebb84ac	-0.36624658
176	0xbe19e374	-0.15028173
177	0xbcd39c69	-0.025831418
178	0x3cf7399f	0.030178843
179	0x3e5df346	0.21674833
180	0x3d9e28f6	0.077226564
181	0xbd9d7894	-0.07689014
182	0xbd569a56	-0.05239328
183	0x3e92e5d6	0.28690976
184	0x3f452ccd	0.77021486
185	0x3e185524	0.14876229
186	0x3f0125b0	0.5044813
187	0x3f5573de	0.83379924
188	0xbe9d662b	-0.3074201
189	0xbd0a87b6	-0.03382083
190	0x3f0133d0	0.50469685
191	0xbe6ff8cc	-0.23434752
192	0xbe6ace4a	-0.22930256
193	0x3c37e39d	0.011223701
194	0xbe761696	-0.24032053
195	0x3e1d664f	0.15371059
196	0x3e6dc7b4	0.23220712
197	0xbe3fb61c	-0.18721813
198	0xbd8c4d75	-0.06850711
199	0x3d74711c	0.059678182
200	0x3e178469	0.14796604
201	0xbed600b4	-0.4179741
202	0x3d0b6192	0.034028597
203	0x3dc4a073	0.09600916
204	0xbe3eb03d	-0.18621917
205	0x3db18c05	0.08669285
206	0xbde7cbd1	-0.11318172
207	0x3e751a90	0.23935914
208	0xbdc8ae44	-0.097988635
209	0x3ded4550	0.11585486
210	0xbe9b850e	-0.3037495
211	0x3f50f2d6	0.8162054
212	0xbe59e5dc	-0.2127909
213	0x3e84ac19	0.2591255
214	0xbc10a445	-0.008828227
215	0x3c4e8903	0.012605908
216	0xbdbe0a5c	-0.0927932
217	0xbe9614fc	-0.29312885
218	0x3f894686	1.0724647
219	0x3ef0e747	0.4705145
220	0xbe936064	-0.28784478
221	0x3ee24092	0.44189888
222	0xbed1af6d	-0.40954152
223	0xbe3696a8	-0.17830908
224	0x3e73492a	0.23758379
225	0x3f3b2caf	0.73115057
226	0xbe499d25	-0.19688852
227	0xbeec069e	-0.460988
228	0x3eae996f	0.34101436
229	0x3ed5053b	0.41605553
230	0xbe38e039	-0.18054284
231	0xbe461288	-0.19343007
232	0x3f14ea05	0.58169585
233	0x3e3ccf99	0.18438567
234	0xbe5328c8	-0.20621026
235	0xbdf4d1a3	-0.119540475
236	0x3cd57988	0.026058927
237	0x3e50da67	0.20395814
238	0x3d47aa9e	0.048746698
239	0xbe2df1c2	-0.16986755
240	0xbcbb093b	-0.02283155
241	0xbe448f1c	-0.19195217
242	0xbecbaa44	-0.3977834
243	0xbdef72e1	-0.11691833
244	0x3c3f6bcf	0.011683418
245	0x3e7716ab	0.24129741
246	0x3d2159dc	0.039392337
247	0x3d2eb188	0.042649776
248	0xbe04c888	-0.12967122
249	0xbeb6652b	-0.3562406
250	0xbe298bd7	-0.16557251
251	0x3e41d768	0.18929827
252	0x3e0b0cab	0.13579051
253	0x3bdd3c46	0.00675157
254	0x3e5becf4	0.21477109
255	0xbe53aaab	-0.20670573

rnn.bias_ih_l1 f4 [16]
0	0xbe9bae4e	-0.3040642
1	0xbee32e37	-0.44371197
2	0xbd9eea04	-0.07759479
3	0x3f47feba	0.78123057
4	0xbf071539	-0.5276676
5	0x3efbf820	0.49212742
6	0x3effa8f8	0.499336
7	0x3d0ed90d	0.034874965
8	0xbebcef1e	-0.36901182
9	0x3e318554	0.17336017
10	0x3f302497	0.6880583
11	0x3eab4f27	0.33458826
12	0xbde2dd0b	-0.11077317
13	0x3dd5d532	0.104410544
14	0xbeb7f869	-0.3593171
15	0x3daab047	0.083344035

rnn.bias_hh_l1 f4 [16]
0	0xbd966903	-0.07344248
1	0xbe84529c	-0.25844276
2	0xbd122282	-0.03567744
3	0x3f2bcfb0	0.6711378
4	0xbf039228	-0.5139489
5	0x3e9376bf	0.28801534
6	0x3e99ac86	0.30014437
7	0x3d3c02d1	0.045901123
8	0xbf2efad2	-0.6835147
9	0x3e86dd1d	0.2634057
10	0x3f3242f9	0.6963344
11	0x3dc0653f	0.09394311
12	0xbd249850	-0.04018432
13	0x3eec272f	0.46123645
14	0xbef0adff	-0.47007748
15	0x3d2b674c	0.04184656

fc.weight f4 [1, 16]
0	0x40a3e4c2	5.1216745
1	0x40d233fd	6.568846
2	0x40b97ba1	5.7963414
3	0x41073ff1	8.453111
4	0x409717fd	4.7216783
5	0x4096accc	4.7085934
6	0x40a5203b	5.1601844
7	0x408e7285	4.4514794
8	0x40957557	4.6705737
9	0x40b5488c	5.665106
10	0x41082e2d	8.511273
11	0x40df3914	6.9757175
12	0x40025fd1	2.0370982
13	0x40a120b0	5.03524
14	0x40a81b3f	5.253326
15	0x408b4696	4.3523664
