Models/lstm/weights_best.tar (torch, 20571 bytes, 11 tensors)

pre_fc.weight f4 [16, 11]
000000 c3 53 d3 be f6 19 11 be 84 e2 6c 3b 2e 3a 41 3f
       -0.41274843 -0.1417006 0.0036145756 0.754794
000010 e8 fb 6e be a9 62 12 3f 77 d2 54 be 05 b3 b3 bd
       -0.23338282 0.57181793 -0.20783411 -0.0877438
000020 e3 f0 0d be 02 b6 23 3e ae 47 7f be dc e2 1f 3e
       -0.13861422 0.15987399 -0.24929687 0.15613884
000030 30 cc 2a bf 30 47 b4 be 2b 38 da 3e bf 74 61 be
       -0.66717815 -0.35210562 0.42620978 -0.22017191
000040 49 88 b1 be 98 49 2f 3e 75 f3 6d be f2 70 f4 3d
       -0.3467429 0.17117918 -0.23237403 0.11935605
000050 41 2d 13 3e 74 33 d9 3b b5 97 e1 3c 30 1e 21 be
       0.14372732 0.006628448 0.02753816 -0.15734172
000060 6f 63 1d 3f df 4d 8c 3d 8e 85 9d be 59 5b c7 be
       0.6147985 0.0685079 -0.30765957 -0.3893688
000070 26 4f 2a 3d 25 c3 2f 3e 36 10 8d 3e ec cc 6b 3f
       0.041579388 0.17164285 0.2755143 0.9210956
000080 dc bf 8f 3f 86 3e 01 bf 6a 27 17 3f ef 20 5d 3e
       1.1230426 -0.5048603 0.59044516 0.21594594
000090 03 1b bf be 27 d3 a4 be c5 22 91 bf 1f f3 9a 3b
       -0.37325296 -0.32192346 -1.1338736 0.0047286893
0000a0 50 7a aa be b7 13 a2 bd 33 9c 1e be 43 ef 73 3e
       -0.33296442 -0.079139166 -0.15489273 0.2382174
0000b0 23 73 f3 bd 21 09 9c be c9 53 57 3f d9 70 91 3d
       -0.11887195 -0.30475715 0.8411222 0.07101602
0000c0 3f 17 17 3f 24 c6 ca bd b5 8b e9 ba 14 95 40 3e
       0.59019846 -0.099010736 -0.0017818125 0.18806869
0000d0 72 59 9f 3d f6 cb 79 3f 88 3b 36 3f d2 0b 05 bf
       0.07780732 0.97576845 0.7118459 -0.5197116
0000e0 c0 22 32 be 6b aa 2e 3f e7 c5 c3 bc fa ba e7 bd
       -0.17396069 0.6822879 -0.023898078 -0.1131496
0000f0 b2 93 22 3e b2 75 bd 3e eb fa aa be 33 e3 88 bd
       0.15876654 0.37003857 -0.3339456 -0.0668396
000100 5c 30 93 3e c3 40 96 3e 0d 87 77 3e 1a 29 ff 3c
       0.28747833 0.29346284 0.24172612 0.031147528
000110 44 95 af 3e 52 d8 d9 3e ef 0a 7d bc d5 9f 88 3e
       0.34293568 0.42547852 -0.015444501 0.26684442
000120 49 43 91 be b7 11 13 be 9b 7b 65 3e 2e 9f 8e 3e
       -0.28371647 -0.14362226 0.22410433 0.2785582
000130 a3 f1 b3 3e c1 5d 63 bd d8 17 70 be b0 40 0e 3f
       0.35145292 -0.055509333 -0.23446596 0.55567455
000140 cf 2e a8 bb 50 d2 ce 3d fe 76 81 bd 22 5f 61 be
       -0.005132533 0.10098708 -0.06321524 -0.22008947
000150 ee 73 ab be 31 2a c4 bd d8 bd b8 be 9f f7 31 3f
       -0.33486885 -0.0957836 -0.3608234 0.69518465
000160 1c 50 0a 3e 3e 83 11 3d 3d 20 f4 3e 2b 21 e8 3e
       0.13507122 0.035525553 0.47680846 0.45337805
000170 c5 9f 4a 3e 7e cb 11 3e 0d d7 80 be 3e 65 05 3f
       0.1978751 0.14237782 -0.2516407 0.5210761
000180 fa 42 b0 3e 28 93 7a 3f f9 9c 1c 3f 31 6c 0d be
       0.344261 0.9788079 0.6117702 -0.13810803
000190 df 28 9f 3e 8d 4c 2f be dc e9 a6 3c 02 6c e6 be
       0.3108587 -0.17119046 0.020375185 -0.45004278
0001a0 30 5f d1 be bc 55 53 be ff bc dd bc f6 32 a4 3e
       -0.40892935 -0.20638174 -0.02706766 0.3207013
0001b0 1a e4 db 3d d1 ad 0c bc e4 9c 25 3f d3 e5 9c be
       0.10736866 -0.008586363 0.6469252 -0.30644092
0001c0 86 59 90 3e 1c c4 5c be 53 ad bc be a9 66 55 bd
       0.281933 -0.21559185 -0.36850986 -0.052099857
0001d0 73 3c a1 be 9c 94 4c be dc 21 a4 3d 3a 41 fc 3e
       -0.31491432 -0.19978565 0.08014271 0.49268514
0001e0 13 9f 22 3e 8d 4a 2c 3f c9 1d 2d 3f 16 3e f9 bb
       0.15880994 0.67301255 0.67623574 -0.007606278
0001f0 94 e4 33 be 75 9b 92 3e 58 92 2c 3f 7a ae 80 3e
       -0.17567664 0.2863423 0.674108 0.25133115
000200 6d ac 99 3e 15 cb 50 3e 3d 73 b7 bd a1 c9 39 bf
       0.30014363 0.2038997 -0.08957527 -0.72573286
000210 4d 7b 1b 3d 71 a3 09 bf ee 44 4b be 90 07 e3 be
       0.037959386 -0.53765017 -0.19850513 -0.44341707
000220 a6 fa 1a 3f f0 96 09 bc e8 26 d9 bc 93 00 5c 3e
       0.6053871 -0.008397803 -0.02650781 0.21484594
000230 95 bb ef 3b 72 3b 9d be 47 ed cb 3d 3c 0f ce 3e
       0.0073160627 -0.30709416 0.099573664 0.40245998
000240 32 02 5c 3e 39 a6 6c 3c c1 2b a6 bd 13 44 70 bd
       0.21485212 0.014443927 -0.08113814 -0.05865867
000250 7b 32 f2 be a8 fb 8a be 22 04 c0 be 4b 28 f3 bd
       -0.4730414 -0.27145123 -0.37503153 -0.1187292
000260 d1 f6 27 be b8 52 31 3f b2 3a d2 3e 41 ee 75 3f
       -0.16402747 0.69266844 0.41060406 0.9606667
000270 b2 5a 5d be 81 d6 af 3e 23 84 62 be 4a 18 50 3e
       -0.21616629 0.3434334 -0.22120719 0.20321766
000280 32 a3 96 3b 54 ee 68 3e 92 a9 7e be 3a de 9b 3d
       0.004597091 0.22747165 -0.24869373 0.07610746
000290 de ad d1 3e 90 24 25 3f 43 42 c9 3d 96 b3 f3 3e
       0.40952963 0.64508915 0.098270915 0.4759795
0002a0 cb 4c 35 3e 69 3c 1c 3e d4 b8 5f 3d 10 7f 96 be
       0.17705075 0.1525742 0.054619625 -0.29393816
0002b0 44 6a 80 be be 68 2c 3d 9d da 65 be 94 64 5b be
       -0.25081074 0.042092077 -0.22446676 -0.21425086

pre_fc.bias f4 [16]
000000 66 21 36 be 4f 30 2d be 54 6a a9 3e 81 a1 33 3c
       -0.17786178 -0.1691296 0.33088934 0.0109637985
000010 f2 55 48 bd c2 11 ba bd 69 04 c6 3d f5 8b 9b be
       -0.04891009 -0.09085418 0.0966881 -0.30380216
000020 69 10 45 be 95 b7 c6 bd c4 38 62 3e db 6f f1 3e
       -0.19244541 -0.09702984 0.22091967 0.4715565
000030 5d c6 47 bc 52 a1 61 be 9f 94 35 be 5f bc af bd
       -0.01219329 -0.22034195 -0.17732476 -0.08580851

lstm.weight_ih_l0 f4 [64, 16]
000000 7f 19 e3 3d 2a 79 8b 3e 61 7e ab bc 1b 75 8b 3d
       0.11088847 0.27240878 -0.020934286 0.068094455
000010 c1 c4 9f 3e cd 15 1a be b0 66 b8 3e d2 01 ba 3d
       0.312048 -0.15047379 0.36015844 0.090823784
000020 c0 7f e3 3d 38 a4 d8 3d b6 e1 2e 3e f7 0d 70 bc
       0.11108351 0.10578197 0.1707829 -0.014651767
000030 30 41 16 be 6b 9a 7c 3d 60 12 fa 3c 49 7e 94 3d
       -0.14673305 0.061670702 0.03052634 0.072506495
000040 b4 b4 89 bd bc df 5b 3e 83 a3 f7 3d 5f f8 69 3e
       -0.067239195 0.21472067 0.12091734 0.22848652
000050 21 d6 a2 3e 52 c5 42 bd a2 52 6a 3e 88 63 aa bc
       0.31803992 -0.04755146 0.22883084 -0.020799413
000060 51 9e 88 3e c0 22 84 bd 26 1b 9a 3d 4d 2b 4c 3d
       0.26683286 -0.064519405 0.075247094 0.049845982
000070 45 0e 46 be 6c 6f 0e be 66 91 05 3e 67 36 aa bc
       -0.19341381 -0.13909692 0.13043746 -0.020777894
000080 06 63 26 3e dc 32 80 be c4 1d dd 3d 15 6f 36 be
       0.16248712 -0.25038803 0.10796693 -0.17815812
000090 0c a2 b5 3e 3e 13 84 3d 0f da 0d 3e a8 1c 3e 3b
       0.35475194 0.06448983 0.13852714 0.002900878
0000a0 33 6f 98 bc c8 07 90 3d 5d 6a a7 3d a8 a1 1f be
       -0.018607711 0.07032734 0.08174584 -0.1558901
0000b0 34 56 d1 3d b0 d6 46 3a 14 54 62 be cb 4e 35 3e
       0.1022152 0.00075850915 -0.22102386 0.17705838
0000c0 72 bf 0e 3e 63 66 99 bc cb 25 97 bd 6b c8 34 3d
       0.13940218 -0.01872558 -0.07380255 0.044136446
0000d0 89 5a a7 3e ab b5 8b 3e 22 45 ef bd 41 2f b9 bd
       0.3268626 0.2728704 -0.11683108 -0.09042216
0000e0 c4 00 a0 3e 81 e8 0f 3e 44 3f 53 3e d3 d8 ba bd
       0.31250584 0.14053537 0.20629603 -0.09123387
0000f0 d6 f9 71 3e 0f a6 3c be 47 60 60 3c ef 35 78 3d
       0.23630461 -0.18422721 0.013694829 0.06059831
000100 c9 93 77 3d ab f5 4c be b6 16 ba 3e 1a 30 75 3e
       0.060443673 -0.2001559 0.36345452 0.2394413
000110 46 33 cb bb e7 a6 a1 3d 66 e7 47 bd c2 63 82 3e
       -0.0062011806 0.07893162 -0.048804663 0.25466734
000120 0f 87 89 3e 65 bf 16 3e 41 c2 ef 3d b6 f7 3a 3c
       0.26860854 0.14721449 0.11706973 0.011411598
000130 b9 20 20 3e 02 a1 1c 3c a6 d3 62 bd fd 45 0b 3e
       0.15637483 0.009559872 -0.055377625 0.13600917
000140 b0 2e d4 3d 45 64 eb bb 65 14 99 3d 53 19 32 be
       0.103604674 -0.007183584 0.07474593 -0.17392473
000150 94 fc de 3d be 6d 0d bd 9f 91 02 bd 5c 85 43 be
       0.10888019 -0.034528486 -0.031877156 -0.19093841
000160 1d 82 a6 3e 69 fb 4f be 8c bf a3 3e d1 64 cf 3c
       0.32521144 -0.20310749 0.31982076 0.025316628
000170 95 1e ff 3c 84 13 7c 3e ae 13 10 3e a5 cc ce bc
       0.031142512 0.2461682 0.14070007 -0.025244066
000180 b7 7b 40 bd 6d 58 92 bc d4 03 bf 3e 1d 91 a5 3d
       -0.046992984 -0.01786443 0.37307608 0.08084319
000190 9e 93 d4 3e 2e 1c 3e 3d f2 69 08 3e 01 30 04 3e
       0.41518873 0.046413593 0.13321665 0.12908937
0001a0 e8 6c d4 3d 67 28 fd 3c f5 fd 5c 3e 76 ff 55 3e
       0.10372335 0.030903054 0.21581252 0.20898232
0001b0 54 6c 0e 3d c3 5e d3 3d 50 95 70 3e bf d4 db 3d
       0.03477128 0.10320809 0.23494458 0.107339375
0001c0 f3 b0 91 3d e3 b3 fd 3d 40 03 c9 3c 9d 50 18 be
       0.071138285 0.12387826 0.024537683 -0.14874502
0001d0 e4 1c 16 3d 2c a8 47 3e fb fb d2 3d fb 04 ff 3d
       0.036648646 0.19497746 0.10301968 0.12452122
0001e0 a1 0c df bc b9 00 85 3e 56 ea fe bd 5a 57 c5 3d
       -0.027227702 0.25977114 -0.1244704 0.096358016
0001f0 85 67 0f be f5 92 1c be 3b 13 9f 3d 56 af 7f bd
       -0.14004333 -0.15290435 0.0776734 -0.062423073
000200 7d 72 60 bc 5a 42 39 bd 73 e8 d6 3e c2 5e 94 3e
       -0.013699171 -0.045229293 0.4197422 0.28978544
000210 5a de 03 3f 7d f1 93 bd 1b b8 ad 3e 66 ac fb 3d
       0.51511157 -0.072237946 0.33929524 0.12288742
000220 5c df ad 3d 7a 79 77 3d c9 df ef 3d 11 c8 38 3b
       0.08489868 0.060418583 0.117126055 0.002819542
000230 7f e1 fa bc 3c 12 6c 3e 53 d5 02 3c 5c ea 63 3d
       -0.030625103 0.23053831 0.007985431 0.055643424
000240 5e f0 0c be fe c8 1f be df d9 d9 3e 48 e2 53 3e
       -0.13763568 -0.15604016 0.42549035 0.20691788
000250 33 b3 3b 3e 47 d6 6d 3e 7d 2f b6 3c e7 aa 38 be
       0.18330078 0.23226272 0.022239441 -0.18033944
000260 c4 1e a7 bd 25 b4 0b 3e 51 20 98 bd 42 4e 0d 3e
       -0.08160165 0.13642938 -0.07428039 0.13799384
000270 68 e3 5d 3e 4b da ad 3d d7 2d 76 3e 83 5e 41 bd
       0.2166878 0.08488902 0.24040924 -0.047209274
000280 11 d8 a0 3e 70 29 ef bd ad 93 f7 3d 13 ac 75 3e
       0.31414846 -0.116778255 0.12088714 0.23991422
000290 d9 f8 5e 3d fc 85 69 3e e0 36 5e 3e 45 c7 a7 3b
       0.05443654 0.22805017 0.2170062 0.0051201903
0002a0 06 a4 ae 3e 93 90 5a 3e 14 09 a4 bd 96 9a 90 3d
       0.34109515 0.21344213 -0.08009544 0.07060735
0002b0 ee ef b5 3c f4 56 4a 3e 7a 21 28 3e cc 95 5b 3e
       0.022209134 0.19759732 0.1641902 0.21443862
0002c0 ca a8 3d 3e 8f 37 4d be e6 1d 59 3e 00 c5 70 bd
       0.18521419 -0.20040725 0.21202812 -0.058781624
0002d0 7f c4 84 3e a2 b8 4d 3e 0b d1 ba bd f6 df ca bc
       0.25931165 0.20089963 -0.09121903 -0.024764996
0002e0 5c b4 b6 3d e2 e2 a8 3d 0c c6 89 be ba 28 f6 3b
       0.089211196 0.082463995 -0.2690891 0.007512179
0002f0 54 73 0b 3e 73 df f1 3d 1f 9a 01 3e ef d8 6b 3b
       0.13618213 0.11810198 0.12656449 0.0035987457
000300 69 88 42 be b9 ed 7a 3e 35 5b f8 3d cf 61 1e 3d
       -0.18997349 0.24504746 0.12126771 0.038667496
000310 3b 0b ca 3e b0 a5 34 3e a8 b3 b1 3e 79 b9 7a 3c
       0.39461693 0.1764133 0.3470738 0.015303009
000320 49 1e 1b 3e dd b4 70 3d 05 03 60 3e 34 76 da 3c
       0.15148272 0.058766235 0.21876152 0.026667692
000330 6b 0a db bd a4 74 37 3e d9 93 c9 bd af 1c 9d bd
       -0.106953464 0.17915589 -0.09842653 -0.076714866
000340 6c 36 75 3e 4c 35 cc bd 8a c7 1c bd d5 a0 aa 3e
       0.23946542 -0.09971103 -0.038276233 0.3332583
000350 61 68 a5 3d 57 fa 08 3e 98 64 bd 3e 0f ac 92 bd
       0.08076549 0.13376747 0.3699081 -0.07161724
000360 78 8d bf 3e 88 2a 75 3e de e1 84 3e 51 99 15 3e
       0.3741262 0.23942006 0.25953573 0.14609267
000370 34 48 dc bd 3c 6e 48 3e d0 ba 0e be f8 fe df bd
       -0.10755959 0.19573301 -0.13938451 -0.10937303
000380 da c5 c0 bd e1 bf 08 3e 8d f3 62 3d 60 44 68 3e
       -0.09412737 0.13354446 0.05540805 0.22682333
000390 64 16 4e 3e 94 f3 ce 3c ef 6d 26 3e 41 3d 37 be
       0.20125729 0.025262631 0.16252874 -0.1789446
0003a0 e4 53 6a be 68 18 30 be 55 c3 26 3e 5c 33 76 3e
       -0.22883564 -0.1719681 0.16285451 0.2404303
0003b0 a0 14 69 bd 40 ee 22 3e 24 fd 43 be 63 64 fe ba
       -0.056904435 0.15911198 -0.19139534 -0.001940858
0003c0 f5 32 8b 3d a5 4e e4 bc fe 33 e2 3b e9 55 34 3e
       0.06796829 -0.027869532 0.0069031706 0.17610897
0003d0 2a 4f 76 3e f3 ab 99 3d 8a a7 89 3e 30 1e 3f be
       0.24053636 0.075035 0.26885635 -0.1866386
0003e0 02 fa a4 3e 7e 8b 85 3e 5e 66 1c be 21 48 7a be
       0.3222199 0.26082987 -0.15273425 -0.24441577
0003f0 0d 2e 97 3d 30 1e 58 be 7a ff 6e 3d 9d b1 78 be
       0.0738183 -0.21105266 0.05834911 -0.24286504

lstm.weight_hh_l0 f4 [64, 16]
000000 f5 88 6d bc 5f 2d 75 3e 44 5a 12 3d 09 64 69 be
       -0.014497985 0.23943089 0.035730615 -0.22792067
000010 f8 4e c2 3d 00 de 1f 3e 5b 91 28 be d4 92 0f 3e
       0.09487718 0.1561203 -0.16461699 0.14020854
000020 27 32 be 3d 11 4e 47 3d 25 68 90 3d 91 1e 0c bd
       0.092869096 0.048658434 0.07051114 -0.034208838
000030 60 f2 41 be 1e e0 8a bc f8 bc 16 3e 28 2f b1 3c
       -0.18940115 -0.01695257 0.14720523 0.021628931
000040 db cc 44 bc a9 bc 3a be 7f 3c 48 be 19 a3 49 bc
       -0.012011732 -0.1823603 -0.19554327 -0.012306952
000050 20 3a ae 3d 34 71 2c 3e a5 b4 c0 3b 7e ac d9 3d
       0.0850718 0.16840059 0.0058809095 0.106286034
000060 2e 1d 1f be 04 87 85 be f9 8c 10 be b4 53 36 3e
       -0.15538475 -0.2607957 -0.14116277 0.17805368
000070 eb a5 13 be bc 38 d1 bd 15 0f 8b bc ae f1 da bd
       -0.14418761 -0.10215899 -0.016974965 -0.10690628
000080 c0 78 17 bd d0 c3 18 be 2b ba 29 be f1 2d 79 3e
       -0.03698039 -0.14918447 -0.16574924 0.24333932
000090 e1 cd 78 be 66 a8 10 bd 13 fc 0c 3e 48 04 08 be
       -0.24297287 -0.035316847 0.13768034 -0.13282883
0000a0 18 4b 9b 3d 9e 18 c3 3c 1b 70 5a 3e b8 f2 51 3e
       0.07582682 0.02381545 0.21331827 0.20502746
0000b0 44 d0 df 3c d8 b5 23 be 1a fc 4d bd 32 c6 e9 3d
       0.027320988 -0.15987337 -0.05028925 0.11414756
0000c0 12 46 4a 3e 4a 64 2e 3d 74 18 06 be 5c eb e1 3d
       0.19753292 0.04257611 -0.13095266 0.11031219
0000d0 0b 3c 56 be 02 35 5d be 62 27 8d bd d3 e7 07 be
       -0.20921342 -0.21602252 -0.06892277 -0.13272028
0000e0 5f 44 65 be be 9c fc 3d 85 1f 4c 3e 74 4f 1a bd
       -0.22389363 0.12334584 0.19933899 -0.03767343
0000f0 05 9a 85 3d e0 bd 43 3e 29 06 33 be 6b d6 aa 3d
       0.065235175 0.191154 -0.17482819 0.08341678
000100 c0 09 3b be 1f 18 8d 3c 69 1d 78 bc a0 af 22 bd
       -0.18265438 0.017223416 -0.015143731 -0.03971827
000110 59 90 35 3e ec fd ad 3d 5b 3b 69 be 4c f5 bd bd
       0.17730846 0.084956974 -0.22776549 -0.09275302
000120 ce cd 89 bd b3 66 7b be e8 cc f5 3d e7 b2 54 3d
       -0.06728707 -0.24550895 0.120019734 0.051928427
000130 c8 08 39 be bf ef bd 3d 15 11 44 be 5a 55 4a 3e
       -0.18069756 0.092742436 -0.19147141 0.19759122
000140 bc 46 d5 bd 88 ae 83 3e af 18 76 3c 70 7b 5c be
       -0.10413882 0.25719094 0.015020533 -0.21531463
000150 e0 0c 07 be 18 08 76 3d 02 34 6d 3e ae c5 18 3e
       -0.13188505 0.060066313 0.2316437 0.14919159
000160 56 76 70 3d 5b 24 fd 3d a1 fd 2c 3e 83 db 66 3e
       0.058706604 0.1236045 0.16893627 0.22544675
000170 df 58 89 be 0c c1 ff bc 93 5f 3e be 74 b0 a5 bd
       -0.26825616 -0.031219982 -0.18591146 -0.080902964
000180 38 3e 91 be 61 74 54 be 8a 35 20 3e 79 86 a9 bc
       -0.28367782 -0.2074752 0.15645424 -0.020694004
000190 d9 40 02 3e 24 03 72 be 25 d1 0d bc a3 77 32 3e
       0.1272005 -0.2363401 -0.008655821 0.1742845
0001a0 a0 d8 0a 3e d0 9f 68 3e 49 6b 6b 3e 19 80 7a be
       0.13559198 0.22717214 0.22990145 -0.24462928
0001b0 da 56 6a bd 68 59 35 be 8d 54 5d 3e 85 10 74 bd
       -0.057211734 -0.17709887 0.21614285 -0.059586067
0001c0 89 3e 0d bd e3 4d a8 3d 01 7d 8c 3d a6 c3 42 3e
       -0.034483466 0.08217981 0.0685978 0.19019946
0001d0 80 07 8c bd 9c e0 0f be ca c1 e1 3d 18 4a 41 be
       -0.06837368 -0.14050525 0.110232905 -0.18875921
0001e0 88 0c 1b 3e 62 e2 80 bd 49 80 ff 3d 85 71 3b be
       0.15141499 -0.06293179 0.1247564 -0.18305023
0001f0 56 7c 20 be ef cd 9e bd b7 0a 98 3c 52 c2 ce bd
       -0.1567243 -0.077541225 0.018559797 -0.100956574
000200 8a e4 09 3e a1 6c 09 3e 51 2b 23 3d 82 29 0f 3e
       0.13466087 0.13420345 0.03983623 0.13980678
000210 b6 77 52 be 6b 80 c7 3d 7c e3 ca bd 36 00 5e 3e
       -0.20553479 0.09741291 -0.099066705 0.21679768
000220 37 32 00 3e f6 80 10 3e e2 18 29 3e ad 3f 84 bd
       0.12519155 0.14111695 0.16513398 -0.06457458
000230 86 6a 26 be 98 60 6f bc f5 c5 fd 3d 56 bf 10 3e
       -0.16251573 -0.014610432 0.12391273 0.14135489
000240 e4 f6 6d be 8d 0b 46 bd 19 eb 37 3c 24 d5 92 bd
       -0.23238713 -0.04835086 0.011225485 -0.071695596
000250 4a ff 31 be 93 b1 4a be 5c 36 00 3c b7 20 4f be
       -0.17382541 -0.19794302 0.00782546 -0.20227323
000260 a9 52 a5 3d 4d bc da 3b e8 12 0b 3d 01 aa 5d bc
       0.08072407 0.0066752792 0.033953577 -0.013529302
000270 df 82 02 3e 5c 7b bf 3d 68 69 29 3d f5 e4 28 3e
       0.12745236 0.09349701 0.04136029 0.1649359
000280 fd 38 21 3e b1 bf db bd 31 4d 70 3e a0 fa 7d be
       0.15744396 -0.107299216 0.23466946 -0.24802637
000290 27 75 9c bc d5 35 6c 3e 49 85 72 3e 0e ed 13 3e
       -0.019098831 0.2306741 0.23683657 0.14445898
0002a0 48 df 8c 3d f0 20 1b be 5d 0d 13 be 9a 0b f2 3c
       0.06878525 -0.15149283 -0.14360566 0.029546548
0002b0 c4 fc 4c 3e 76 1f 19 3d a1 59 29 3e 12 a5 35 3e
       0.20018297 0.03738352 0.16538097 0.1773875
0002c0 65 f9 5c 3e 0c 0c fe bd 53 8b ce bd 6b f2 59 3e
       0.21579511 -0.124046415 -0.10085168 0.21283881
0002d0 a4 d4 f1 3c 85 f8 69 3e 23 c4 4e 3e 44 d7 70 be
       0.02952034 0.22848709 0.20192008 -0.23519617
0002e0 d9 89 82 3e 36 dc 0b 3c e3 e0 de bd f6 b0 15 3e
       0.25495794 0.008536389 -0.108827375 0.14618286
0002f0 f0 f1 3a be 23 80 69 bd ff 33 30 3e 12 98 51 3e
       -0.18256354 -0.057006966 0.17207335 0.20468166
000300 d8 e9 60 be 87 e5 b1 bd 85 56 a9 bd e3 74 2d be
       -0.21964204 -0.08686357 -0.082684554 -0.1693912
000310 d2 71 17 3e a8 8f 65 3d 6d 97 a7 3d 16 64 2f 3e
       0.14789513 0.056045204 0.08183179 0.17128024
000320 f5 6a d9 bd ac e4 1c 3e 43 44 6d 3c b5 d6 45 be
       -0.106161036 0.15321606 0.014481607 -0.19320185
000330 b9 72 1d be 7a b1 34 be cf 7b e9 3d c8 3f 15 be
       -0.15375794 -0.17645827 0.11400568 -0.14575112
000340 43 c2 52 be f2 17 1d bd 4f 41 26 be d8 cf ed bd
       -0.20581917 -0.038352914 -0.16235851 -0.11611909
000350 5e 1d 4f be 75 e2 5e 3e f8 6c 81 3e 8a d3 3d be
       -0.20226046 0.21766074 0.2527845 -0.18537727
000360 63 fc 21 be c1 6f 0f bd b3 49 3d be 2f 4d ce bd
       -0.15818934 -0.035018686 -0.18485145 -0.10073315
000370 fe 42 30 be 38 5c bb bd a9 64 67 3e df 54 6f 3e
       -0.17213055 -0.09148449 0.22596993 0.2337222
000380 c7 24 52 be 08 6f 73 be e4 a6 1d be 5f ac f4 3d
       -0.20521842 -0.23772824 -0.15395695 0.1194694
000390 b0 af 2d be 5b 8f 3f 3e 34 f8 b4 3b 2a ea f3 3d
       -0.1696155 0.1870703 0.005522752 0.119098976
0003a0 8c 9c 00 3e e8 4f 40 3e 8a 15 06 3e 74 04 73 3e
       0.12559718 0.18780482 0.13094154 0.23732167
0003b0 ba 5f 90 bd 74 21 17 be a0 d2 96 3d 73 be 56 3e
       -0.070495084 -0.14758855 0.07364392 0.20971088
0003c0 25 53 9c bd ef 01 89 3e 9b ad 3f 3e f4 a2 91 3d
       -0.07633046 0.26759288 0.18718569 0.07111159
0003d0 b6 c8 67 3e 7c 53 6c 3c e4 29 12 3e ab ea 77 be
       0.22635159 0.014424201 0.14273793 -0.24210612
0003e0 a4 49 89 3d 89 1e b5 3d c0 96 82 3d 97 b9 a3 3d
       0.06703499 0.08843715 0.063764095 0.07994383
0003f0 1c ab 07 be e4 36 23 3e 97 e7 66 3e ce 69 24 be
       -0.13248867 0.15938908 0.22549282 -0.16055986

lstm.bias_ih_l0 f4 [64]
000000 ed 77 f8 bc cc f7 eb 3e 85 91 1e 3e 56 d7 84 3e
       -0.030330623 0.46087492 0.15485199 0.25945538
000010 33 43 4a be 8c 06 59 3e 9c 3c 76 3e 61 57 23 3e
       -0.19752197 0.21193904 0.24046558 0.15951301
000020 30 3b fa 3d a5 59 b3 3e 94 27 b4 3e 6e 5f 04 3e
       0.1221832 0.3502933 0.35186446 0.12927029
000030 a5 fd a4 3d 50 2d b9 3e ae 1f 48 be ec 4f 4b 3e
       0.08056191 0.36167383 -0.19543335 0.19854707
000040 96 94 6b 3e 3a 80 4e 3e 87 85 c7 3d e2 2f 8d 3e
       0.230059 0.20166102 0.09742265 0.27575594
000050 c9 a4 13 be 02 e9 8c 3e ca 62 95 3e 04 a7 23 3d
       -0.1441833 0.2752152 0.29176933 0.0399542
000060 8c 38 36 3e 8d 9c c6 3b f8 1f 57 3e 7a 0e 80 bb
       0.17795008 0.006061143 0.21008289 -0.0039079757
000070 2e dd 86 3e f9 51 cc 3e 83 d3 e2 3d 83 4e 8d 3d
       0.26340622 0.3990629 0.11075499 0.068997405
000080 68 a1 b4 3d ad 97 75 3d 4e 8b a5 be dc c4 06 be
       0.08819848 0.059959102 -0.32332844 -0.13161033
000090 be 83 0b 3d 76 b1 9e bd 3e 30 a9 3d 80 32 02 3e
       0.034061186 -0.07748692 0.082611546 0.12714577
0000a0 fc 69 2b be ee e8 b1 3d 95 af 82 be e9 bd c7 39
       -0.16739649 0.08687006 -0.25524583 0.00038097732
0000b0 38 52 3d 3d b1 5b 91 be fc a3 9e bd 07 ad 85 bd
       0.046220988 -0.28390267 -0.07746121 -0.06527143
0000c0 4b e0 b2 3e 6c c9 64 3e 95 21 13 bc a2 08 6c bd
       0.34936747 0.22342461 -0.008980175 -0.05762542
0000d0 31 9e 71 bb 05 24 87 3e 88 64 9d 3e 82 39 82 3e
       -0.003686797 0.26394668 0.30740762 0.254345
0000e0 9a 33 b9 3e ef 6c 04 3e 3c 06 77 3e 7a 68 00 be
       0.3617218 0.1293218 0.24123472 -0.12539855
0000f0 71 9e 6e 3e 44 9e c9 3e 9e 7d e3 3c 41 90 5f 3d
       0.23302628 0.3937856 0.02776986 0.05458093

lstm.bias_hh_l0 f4 [64]
000000 33 4f 7e bd af 1e b8 3e 78 6b a3 3e 86 44 91 3e
       -0.06208725 0.3596091 0.3191793 0.28372592
000010 d0 c5 19 3e 16 f3 4a 3d 85 7b 87 3e 12 f0 8e bd
       0.15016866 0.04954823 0.26461425 -0.069793835
000020 77 0d 9b 3d 99 b7 a9 3e 72 98 fa 3d 5e 48 2a be
       0.075709276 0.33147886 0.12236108 -0.16629168
000030 f5 74 42 3e 98 47 95 3e d2 87 fe 3b cc 2f 6b 3e
       0.18989928 0.29156184 0.007767656 0.22967452
000040 c5 1c 6f 3e 36 8e 26 be 2c 5e 62 bd ca 68 f5 3d
       0.23350818 -0.16265187 -0.05526559 0.119828776
000050 c2 1b 86 bd 01 38 85 3e 3c b6 9c 3e 9b e1 08 be
       -0.06548263 0.2601929 0.30607784 -0.13367312
000060 e4 a6 f2 3d ae c0 f3 bd f8 63 50 be 56 c7 77 be
       0.11848238 -0.11901985 -0.20350635 -0.24197134
000070 b2 74 f8 3d 73 d9 7b 3e 11 b0 3c bd 8f 88 84 3c
       0.12131633 0.24594669 -0.046066348 0.016178397
000080 de 8c a5 3e 86 4d 01 3f 97 f6 2b be e0 bc 95 be
       0.32334036 0.50508916 -0.16793285 -0.29245663
000090 74 d0 7a 3e bf c3 2d be 37 40 0c 3f d0 7a 13 3e
       0.24493581 -0.16969202 0.54785484 0.14402318
0000a0 f7 3f c6 bc 98 a5 3e bc 3c d1 3d bc 3a fa 71 bd
       -0.024200423 -0.01163616 -0.01158553 -0.059076525
0000b0 b5 48 f5 3d a8 4a 5e bd ad cc b1 3d 66 52 23 be
       0.119767584 -0.054270416 0.08681617 -0.15949401
0000c0 83 15 a3 3e 0a ae ca 3e af b8 11 bd 23 42 60 3e
       0.3185235 0.39585906 -0.03557652 0.21900229
0000d0 bb bb a3 3d f1 a7 15 3d 9b b0 77 3c 0d 4e 6f 3d
       0.07994791 0.036537115 0.01511779 0.058424044
0000e0 57 68 43 3e 10 ed 17 bd 02 e9 85 bc 1b 0a df bd
       0.19082771 -0.037091315 -0.016346458 -0.10890599
0000f0 65 2a 4f 3e b5 4d c9 3e 43 44 5d 3e 48 86 d5 bd
       0.20231016 0.39317098 0.21608071 -0.10426003

lstm.weight_ih_l1 f4 [64, 16]
000000 fb 0f 91 3e a6 e4 3e be 7e d4 67 be 89 eb 61 be
       0.28332505 -0.1864191 -0.22639653 -0.22062506
000010 ae 85 c0 3d 93 80 23 be 92 29 07 3e 72 d4 24 be
       0.094004974 -0.15967016 0.13199452 -0.16096666
000020 b1 84 42 bd 8f 7f 89 be 38 54 00 3e 9f ce a4 bc
       -0.047489826 -0.26855132 0.12532127 -0.020118056
000030 96 b0 1a 3e 4f 1f 25 be 76 11 32 3c ec 8e 54 3e
       0.15106425 -0.16125225 0.010868421 0.20757645
000040 d1 ac e9 bd 8c 49 5f 3e ec 6d bf be 1e c9 d2 bd
       -0.11409915 0.218054 -0.3738855 -0.10292266
000050 43 6a 73 3e e3 02 18 3d d6 10 ed 3e d4 f2 04 3c
       0.23771004 0.037112128 0.46301907 0.008114535
000060 94 43 01 bf e1 52 9b 3e 2b d0 f9 be 4c 97 dd be
       -0.5049374 0.3033667 -0.48791632 -0.43279493
000070 3b e8 cc 3e 7f a0 81 bd 1a 37 f2 bb 68 a6 b5 ba
       0.40020928 -0.0632944 -0.0073918225 -0.0013858797
000080 56 1b 24 3e cf a4 c4 bd 22 ed ac bd 3f 4b 69 be
       0.16026053 -0.09601747 -0.08443667 -0.2278261
000090 16 5f e0 bd 8e 89 81 be ff 9e 03 3d 9a 7d a2 3d
       -0.10955636 -0.25300258 0.032134052 0.07934113
0000a0 ac b0 33 3e 9b 57 df 3c 0f 0c b4 3d 97 7c 3f 3e
       0.17547864 0.027263453 0.087913625 0.18699871
0000b0 b8 9c 84 3e 30 0e 15 3e 77 a8 d1 3d 23 3b 00 3e
       0.25900817 0.14556193 0.1023721 0.12522559
0000c0 58 8c 2b be 56 a4 68 3e a8 b0 ce be c5 e1 06 bd
       -0.16752756 0.22718939 -0.40369153 -0.032930154
0000d0 d9 1a e3 3e c9 d3 05 bd ab 33 a5 3e b1 a8 3f be
       0.4435642 -0.032672677 0.32265982 -0.18716694
0000e0 b3 1b 46 be 0e 39 89 3e b4 59 15 bf d5 35 8e 3c
       -0.19346504 0.26801342 -0.5834 0.017359653
0000f0 36 2b ac 3e 7d d3 cb be e6 90 ab 3d 42 8c 54 be
       0.33626717 -0.3980979 0.083772466 -0.20756629
000100 c1 64 e1 bd 1e 17 af 3d 42 4d 15 3e a5 43 7b bb
       -0.110055454 0.08549331 0.14580253 -0.003833988
000110 c3 ae 92 bd a3 3c 40 3d 45 e2 f4 bd f7 cf 64 3e
       -0.071622394 0.046932828 -0.1195722 0.22344957
000120 d5 31 cf 3d 20 15 da bd 75 83 c3 bd 3e a8 72 3e
       0.101169266 -0.106485605 -0.09546558 0.23696992
000130 f5 51 85 3e 07 b0 a2 3d 39 c5 6b be 11 15 77 bd
       0.2603909 0.07943731 -0.23024453 -0.060322825
000140 c9 b1 e2 bd be 89 ec 3e 8b ba c9 3b 06 ca 40 3e
       -0.11069066 0.4619884 0.006156271 0.18827066
000150 04 fd d9 3e 53 af e7 3d 7f 12 db 3e 28 c7 d1 3d
       0.42575848 0.11312737 0.4278755 0.10243064
000160 91 b9 da be 34 4b 9d 3e e2 ca ba be 15 88 73 bc
       -0.427197 0.30721438 -0.36482912 -0.014863987
000170 98 8c 50 bb 01 8a 9a be 27 e4 17 be 64 c0 04 be
       -0.0031822082 -0.30183414 -0.14833127 -0.12964016
000180 e1 0c 09 3e 24 fc 1d 3e 9d 0a 6a 3e 0a 41 40 be
       0.13383819 0.15428215 0.22855611 -0.1877481
000190 1b aa 3d 3d 97 7e d6 bd 46 4d 04 3e 40 27 3f bc
       0.046304803 -0.10473364 0.12920102 -0.011667073
0001a0 b5 17 03 be cf fb f3 bd 2a 27 df 3b fb 6f 0b be
       -0.12802012 -0.11913263 0.0068100886 -0.13616936
0001b0 a2 cc 44 be 2d 8d 26 3e 22 88 49 be 7e f3 61 be
       -0.19218686 0.16264792 -0.19680837 -0.22065541
0001c0 7b 00 42 be 33 d0 20 be cc 2e 80 be 32 d4 e5 bc
       -0.18945496 -0.15704422 -0.25035703 -0.028055284
0001d0 9a c4 01 be cc 3f 78 bd 7f 6a 2a be 31 d8 4d 3c
       -0.12672654 -0.060607716 -0.16642188 0.012563751
0001e0 28 9a 16 be 93 37 bb 3d 15 5a 50 3e cc dc 15 be
       -0.14707243 0.09141459 0.20346864 -0.14635009
0001f0 c2 da 6a bd 95 39 6c 3e 51 eb 71 3d c9 12 12 be
       -0.05733753 0.23068841 0.059062306 -0.14264978
000200 e2 48 82 bd 58 b4 41 be 35 73 31 3e c4 ab 19 bd
       -0.063615575 -0.18916452 0.17329104 -0.037517324
000210 bc 6c ea 3d 5d 32 71 3e 0f 42 bb bd 92 06 61 be
       0.11446521 0.23554368 -0.09143459 -0.21975163
000220 39 0c 45 3e 7e ae 56 3e a6 27 72 3e 6e 5e 0d 3e
       0.19242944 0.20965001 0.23647937 0.13805553
000230 4a a7 86 bd de 78 35 3e 65 a2 15 3e 93 fa 52 3c
       -0.065748766 0.17721888 0.1461273 0.012877124
000240 8b 34 8b 3d 95 cc cb 3e 82 5b dc be b4 2d 91 3e
       0.06797131 0.3980452 -0.43038565 0.2835518
000250 a7 e8 56 3d 61 28 85 be 85 58 30 3e 5b 2d 43 bd
       0.05246797 -0.2600737 0.17221268 -0.047650676
000260 c8 54 89 be 74 f3 44 3e 3e 2a 00 bf 62 01 c6 bd
       -0.26822495 0.19233495 -0.50064456 -0.096682325
000270 30 16 cd 3e fe 0a 7d be cf 1f 47 bd 53 ca b6 bd
       0.4005599 -0.24711224 -0.04861432 -0.08925309
000280 a4 ce 8b be 3d 4c f5 3e d8 2e 27 3c f0 43 2a bd
       -0.27306092 0.47909728 0.0102040395 -0.041568696
000290 98 99 b5 3e 60 6b b1 be f0 85 af 3e 55 5d a5 3c
       0.35468745 -0.34652233 0.34281874 0.020186106
0002a0 f4 8a fe be 26 44 d4 3e 0c 3f b2 be 08 7a a3 bd
       -0.49715388 0.41458243 -0.34813726 -0.0798226
0002b0 26 29 67 3e dc 22 9e bd 62 d5 88 bd 56 5a 92 be
       0.2257429 -0.07721493 -0.066813245 -0.28584546
0002c0 d5 70 ad be f8 c4 0a 3e 7f 28 4b bd ad 24 89 3e
       -0.33875147 0.135517 -0.049599167 0.26785794
0002d0 8d de 17 3e 99 e8 a2 bd 20 d5 b1 3e 21 a7 74 be
       0.1483099 -0.07954521 0.34732914 -0.2389188
0002e0 e3 3c e9 be c8 38 75 3b 05 16 fe be ec a6 03 bc
       -0.45554265 0.0037417877 -0.49626175 -0.008035403
0002f0 a3 07 d2 3d 3c 7a 04 be f6 d5 30 3e 8d a3 ae be
       0.10255363 -0.12937254 0.1726912 -0.34109154
000300 16 a3 30 3e e4 39 1a be c5 be 87 be 39 88 e5 3d
       0.17249712 -0.15061146 -0.26512733 0.11207623
000310 e6 19 85 3e 37 3c a3 3d bb a4 2c be 5b b5 81 be
       0.2599632 0.079704694 -0.16859715 -0.25333676
000320 c0 98 60 be 08 40 4f bd b1 c4 18 3e cb 1b 53 be
       -0.2193327 -0.050598174 0.14918782 -0.20616071
000330 f6 d3 0e be ed 1d 7b be 31 3b 23 3e c0 c6 21 3e
       -0.13948044 -0.24523135 0.15940548 0.15798473
000340 b4 2f ef 3b 71 59 20 3f 3e 7f 77 be 3d 89 fe 3d
       0.007299388 0.62636477 -0.24169633 0.1242852
000350 52 41 ee 3d 43 a0 6d be ef 55 21 3f 97 3a 0a bd
       0.116335526 -0.23205666 0.6302175 -0.033747282
000360 8a fa 12 bf 7b 12 06 3e 81 ab bc be e3 c6 0c be
       -0.5741354 0.13092987 -0.36849597 -0.13747744
000370 29 ae 11 3e 1e 50 86 be b1 a4 87 3d 00 65 1a be
       0.14226593 -0.26233 0.06623209 -0.15077591
000380 77 29 13 3b 30 1d 60 be 8d e5 3a 3e a7 ef 9d 3d
       0.0022455135 -0.21886134 0.18251629 0.07711726
000390 1f 19 4a bc 52 b7 8a be 59 af 7a 3d 34 2b 2b bd
       -0.012335091 -0.27092987 0.06120238 -0.04178925
0003a0 9f 1c 33 be 2b 59 cc 3d 14 db 30 3d e3 3f 6a 3d
       -0.17491387 0.09977945 0.04317768 0.057189833
0003b0 9d cf 93 be d3 24 16 3e 69 78 45 be 3b 4a b4 3d
       -0.28869334 0.14662485 -0.19284214 0.08803221
0003c0 1a 3d cb 3c 95 1e e9 3e db f6 c5 be 3c 7a a9 3e
       0.024809409 0.45531145 -0.38664898 0.3310107
0003d0 4a 1b 05 3e 89 16 cf bd fb 02 e8 3d 39 1d 12 3e
       0.12998691 -0.1011172 0.113286935 0.1426896
0003e0 fc a2 02 bf fa c9 cf 3e 94 eb ad be 8d 4f c9 be
       -0.51029944 0.40583783 -0.33968794 -0.39318505
0003f0 2c 20 8c 3e 7d 97 f5 be be 92 25 3e e9 ee c6 bd
       0.27368295 -0.4796714 0.16169259 -0.09713537

lstm.weight_hh_l1 f4 [64, 16]
000000 41 42 5b be 37 15 42 3e 7e 6c 19 be e4 f7 89 3d
       -0.21411993 0.18953405 -0.14982793 0.067367345
000010 bf 2e 62 3e 86 c2 c8 bd e7 cc 33 3e 83 2c a7 bd
       0.22088145 -0.098027274 0.17558633 -0.08162787
000020 12 f0 73 be 7b a7 83 be f3 0c 24 be aa 00 8d 3b
       -0.23822048 -0.25713715 -0.16020565 0.0043030577
000030 8a f2 33 be cb 30 3e bd 2f 2b 0f be 52 46 1a 3e
       -0.1757299 -0.04643325 -0.13981317 0.15065888
000040 b9 c7 86 be ba 52 b7 bd 78 67 e6 3d 63 2a 9d bd
       -0.2632425 -0.08951326 0.11250204 -0.076741
000050 88 d7 e6 3d 62 1f 82 3d 52 61 8a be 4a 50 5a bd
       0.11271578 0.06353642 -0.27027375 -0.053299226
000060 92 9a 2c 3e 4b 2d 0a be aa eb 0f 3d 4a 2b de bd
       0.16855839 -0.1349384 0.035136856 -0.108481005
000070 c5 44 0c 3e 53 0d 0f 3e e1 bc b6 3d 3c db 13 3e
       0.13698108 0.13969927 0.089227445 0.144391
000080 e3 94 1a 3e 43 17 95 3d 18 7f d6 bd db ef 2f be
       0.15095858 0.072798274 -0.1047346 -0.17181341
000090 f4 02 96 3d fd ca 57 be 11 8d 20 3e 76 00 75 3e
       0.07324782 -0.21073528 0.15678813 0.23925957
0000a0 b9 a8 1c be de fd 24 3e 3b 4f 1f be 30 c4 52 3c
       -0.15298738 0.16112468 -0.15557568 0.012864158
0000b0 1f d3 2a bd 17 ac 32 3e 69 92 0f 3e ae 40 be 3c
       -0.041705247 0.1744846 0.14020695 0.023224201
0000c0 b9 b4 4f 3c 06 20 f9 bd 32 6b 04 be ec c6 d7 3d
       0.012677365 -0.12164311 -0.12931517 0.10535988
0000d0 3a 2e 3c bc 13 63 2e 3c d8 83 14 be d9 8d 7a be
       -0.011485631 0.010643738 -0.1450342 -0.24468173
0000e0 93 51 9e 3d 8b 4e a4 3d 3b 74 69 3e 12 15 4c be
       0.07730403 0.080227934 0.22798245 -0.19929913
0000f0 af 53 44 be aa 58 7b 3e 85 60 14 be e3 94 03 be
       -0.19172548 0.24545541 -0.14489944 -0.12849765
000100 3b 9a 92 bd 71 7b 4a be 0c 8d 4b be ee b6 b9 3d
       -0.071583234 -0.19773652 -0.19878024 0.09068094
000110 e7 13 58 be 03 58 2f 3e 9e 4b 42 3e af 7c 86 3d
       -0.21101342 0.17123418 0.18974158 0.0656675
000120 08 31 04 be d3 db e0 3d 8b 47 0f bd f5 b3 44 3e
       -0.12909329 0.10979428 -0.034980338 0.19209273
000130 d4 05 5c be 93 96 5d bd 20 63 f0 bb e0 09 21 be
       -0.21486598 -0.054098677 -0.0073360354 -0.15726423
000140 0a 3d 14 3e bd b0 9d 3e 68 61 53 bd d3 e2 13 bd
       0.1447641 0.30798903 -0.051606566 -0.03610499
000150 c0 7f f0 3b 4e 4d e2 bd 10 b8 3a 3e e1 9e a0 3d
       0.0073394477 -0.11049901 0.18234277 0.07842804
000160 55 88 2e 3e 32 97 22 be 69 39 40 3e 5a a6 ef bb
       0.17044194 -0.15877989 0.187719 -0.007313532
000170 4c 69 65 3e bb 22 00 3d 0c 04 f8 bc 58 9b de 3a
       0.22403449 0.03128312 -0.030275367 0.0016983552
000180 c6 72 dc bd e0 cc 8f 3d 5d 9a 7d bd 6b 89 38 3e
       -0.10764079 0.07021499 -0.06191479 0.18021171
000190 3a e4 51 3e ba df 22 bd 0c a3 7c 3c 5f ff 64 3e
       0.20497218 -0.039764144 0.015419733 0.22363041
0001a0 db 45 aa 3d f0 ec 32 3e a4 48 32 be 48 73 17 3e
       0.08314105 0.17473197 -0.17410523 0.1479007
0001b0 b8 83 e3 bd 00 75 73 3e 0f 2d bb 3d 21 5c 8a 3d
       -0.11109108 0.237751 0.091394536 0.067558534
0001c0 9a d7 bc 3d c0 ab 2c be da 4a 44 be 38 78 ac 3d
       0.0922081 -0.16862392 -0.19169179 0.084213674
0001d0 dd 0b 8b bd 1f 6d 4b 3e 5f 5e 72 3e 13 86 60 bc
       -0.06789372 0.19865845 0.23668812 -0.013703841
0001e0 9a b3 c9 3d ca e1 59 3d e3 57 d8 bd a3 a8 79 bd
       0.098487094 0.053193845 -0.10563638 -0.06095184
0001f0 9e 1a 42 3d aa b8 85 3e 1c 00 06 3e a6 08 f7 bd
       0.047388665 0.2611745 0.13085979 -0.120621964
000200 49 63 1d 3e 9e 5a 12 3e aa e7 55 be 65 60 d4 bc
       0.15369906 0.1429238 -0.20889154 -0.02592487
000210 99 8f 40 3e 8f 1e b7 bb fa fa 42 be 77 10 3d bc
       0.18804778 -0.0055883597 -0.19041052 -0.01153957
000220 54 b7 52 3e 08 1a 24 be 7f f2 64 be 6d 25 4f 3d
       0.20577747 -0.16025555 -0.2235813 0.0505728
000230 84 d2 0e be ce 1f 61 3d 47 22 6b be 45 4e d9 bd
       -0.13947493 0.054961972 -0.22962295 -0.10610632
000240 c3 e9 50 be 6f be 0d be 90 18 15 3e af c7 7d 3e
       -0.20401673 -0.13842176 0.14560151 0.24783204
000250 6a 4e 22 be f1 27 d5 bd a4 7c 77 be 74 84 77 3d
       -0.15850225 -0.10408009 -0.2416864 0.06042905
000260 0b 6e 04 3e d0 3a 82 bd 64 60 8d 3e e8 3a 3d 3e
       0.12932603 -0.06358874 0.27612603 0.18479502
000270 ce 3a 32 3d 87 e3 d8 3c 05 4b 4e 3e 85 4d 50 3c
       0.04351311 0.026475681 0.20145805 0.012713795
000280 04 c1 49 bd f5 ac 85 3d 78 9f 59 be 0f 8e 2f 3e
       -0.04925634 0.065271296 -0.21252239 0.17144035
000290 81 5b 38 3e 95 86 9b bd ed 0a 5a 3b 06 05 be bd
       0.18003656 -0.07594029 0.0033270672 -0.09278302
0002a0 34 45 bd 3d 74 ad 1f be a5 33 70 3d 20 d1 15 be
       0.09241715 -0.15593511 0.058643002 -0.14630556
0002b0 38 48 91 bd cb 39 d4 3d 14 8a 8c bd d7 61 79 3e
       -0.07093853 0.10362586 -0.06862274 0.24353729
0002c0 2d fa e1 bc 14 e5 a7 bd 2c ee 5b bc 1d dd af bd
       -0.027585113 -0.0819799 -0.013423484 -0.08587096
0002d0 d7 32 2a 3b b0 5e 2b 3e db 10 ee bd 51 a5 00 3e
       0.0025970244 0.16735339 -0.11624309 0.12563063
0002e0 b4 15 0c be f6 a9 03 3e 8e dc 09 3e a3 2f 16 3d
       -0.13680154 0.12857804 0.13463041 0.036666524
0002f0 68 7b a1 3d 89 d5 01 bd d3 9b 2a be b5 d9 d5 3a
       0.07884866 -0.031697784 -0.16661005 0.0016315492
000300 6b 1f 67 3e 97 a3 bd 3d 3f c1 64 be 20 0d 1c 3e
       0.22570579 0.09259718 -0.22339343 0.15239382
000310 2e 19 33 3e 66 44 8d 3d b6 b9 33 be 60 4e 85 3d
       0.17490074 0.068978116 -0.17551312 0.065090895
000320 21 d4 5f 3e 03 e9 1f 3e f5 d5 b1 bd ff 72 c3 3d
       0.21858265 0.1561623 -0.08683387 0.09543418
000330 89 38 95 bd a3 b6 46 ba 48 a6 46 bc d6 45 8d 3c
       -0.07286174 -0.00075803156 -0.0121246055 0.017245214
000340 24 7e 82 be d5 35 66 3e c0 26 9e 3d 94 8d 9c 3d
       -0.25486863 0.22481473 0.07722235 0.076441914
000350 00 b7 36 3e 37 a5 4c bd 78 43 e0 bd ec e3 8f be
       0.17843246 -0.04996225 -0.10950369 -0.28103578
000360 71 2b 17 3e f1 ee 90 3d 4f cf 2e 3d 0b 9a f4 bd
       0.14762665 0.070768245 0.042678174 -0.11943444
000370 c4 52 3f 3e 5f 3a fb 3d a4 89 44 be a6 46 c9 3e
       0.18683916 0.12266993 -0.1919313 0.39311713
000380 d8 6c 62 3e 2c ad 27 3e 30 0b 47 3e 09 2b 83 3e
       0.22111833 0.16374654 0.19437861 0.2561877
000390 80 24 28 3e 9c b5 8a bd 09 de 15 3d 3c 2e ad 3d
       0.16420174 -0.067729205 0.036588702 0.08456084
0003a0 f6 f6 54 bd e3 c5 59 bd 69 12 4d be 94 e6 03 be
       -0.051993333 -0.053167235 -0.20026554 -0.12880927
0003b0 61 34 ea 3d 8c 21 54 3e b9 4b 07 3d 4e 2a 5b 3e
       0.11435772 0.20715922 0.0330312 0.21402857
0003c0 97 81 66 bd 86 1d 41 3e b1 f8 8a 3d 62 58 0d 3e
       -0.05627593 0.18858919 0.06785715 0.13803247
0003d0 a4 ef 14 3d 72 eb 25 be 6e f3 e4 bc 96 c9 83 be
       0.03636135 -0.16203097 -0.027948108 -0.25739735
0003e0 11 d5 8c bd ff 16 59 3e a6 9b 80 3e 9d e3 a1 bd
       -0.06876577 0.21200179 0.2511875 -0.07904742
0003f0 e2 2b 67 be 73 2e 7b 3e 4e 67 a0 3d da 05 f9 bd
       -0.22575334 0.24529438 0.07832204 -0.12159319

lstm.bias_ih_l1 f4 [64]
000000 ba 95 af 3d 69 30 22 3f b8 11 ce 3e e8 23 26 3f
       0.0857348 0.6335512 0.40247893 0.6489854
000010 4c f2 31 3e 88 a1 e9 3e eb 81 90 3e 80 bd ad 3e
       0.17377585 0.4563105 0.2822412 0.3393364
000020 fa 68 69 be 51 ce 21 3f 85 9e 0b 3f d1 06 d3 3e
       -0.22793952 0.6320544 0.54538757 0.41216138
000030 68 c5 84 3e dc 95 0f 3f c3 ff 4d 3d 22 89 22 3f
       0.2593186 0.5608804 0.05029274 0.634905
000040 6d 36 1d be f8 51 e5 3e c0 be dd 3d ae 6b b2 3e
       -0.15352793 0.447891 0.10827398 0.34847778
000050 40 c5 ea 3d 64 37 85 3e d5 b9 14 be 8e 00 5c bd
       0.11463404 0.26018822 -0.14524014 -0.053711466
000060 1d 30 ce 3d 91 67 95 3e 37 bc 84 3e 40 5c 09 be
       0.10067771 0.29180577 0.25924847 -0.13414097
000070 2a 68 41 3e 47 c2 1e 3e 80 4d 8a 3e 49 b8 75 3e
       0.18887392 0.15503798 0.27012253 0.2399608
000080 e6 7a ad 3e 9f fa d8 3e 33 6b 17 3e 77 9b ef 3e
       0.33882827 0.4237871 0.14786987 0.46798298
000090 cc 31 c4 bd 52 b2 bf 3c 06 92 8e be 41 6e 17 be
       -0.095798105 0.02340046 -0.27845782 -0.14788152
0000a0 fe ab e6 3c bb 29 95 3e 91 c5 e6 3e b6 0e a2 3e
       0.028158184 0.291334 0.45072606 0.3165185
0000b0 48 d5 92 be 94 0f bf 3e c8 fd 90 3e 3c cf 96 3e
       -0.28678346 0.37316573 0.2831862 0.29454982
0000c0 c5 4f ed 3c d9 2e 2a 3f b9 18 c8 3e f0 a4 08 3f
       0.028968701 0.66477734 0.39081362 0.53376675
0000d0 eb ae df 3d de 27 31 3f 11 ed 83 3d 87 ed ab bd
       0.10922035 0.6920146 0.06441701 -0.08394914
0000e0 11 89 14 bc e4 e5 f0 3e c9 a9 3b 3f 79 9e 1d 3f
       -0.009065882 0.47050393 0.73305947 0.61569935
0000f0 1d d2 25 3e f6 95 3f 3f f6 c7 79 3b e1 05 6b 3f
       0.16193433 0.748382 0.003811357 0.91805845

lstm.bias_hh_l1 f4 [64]
000000 a9 ad b9 3d fb 6a 43 3f aa 3a 94 3d e0 18 b9 3e
       0.09066326 0.76335114 0.07237752 0.3615179
000010 0f 6c 4f bd d9 57 b4 3e 6a 70 3d be 84 fc 15 bd
       -0.050640162 0.35223272 -0.18499914 -0.03661777
000020 1e d6 4c be 4d 30 47 3f 56 21 42 3f 1d a5 b2 3e
       -0.20003554 0.77808076 0.75832117 0.34891596
000030 06 55 dc 3d a4 51 e4 3e 68 36 dc 3d 8e 87 34 3f
       0.107584044 0.44593537 0.10752565 0.7051934
000040 ce 8f b2 bd 99 89 5c 3e 71 fb 45 3e 7b 36 b8 3e
       -0.08718835 0.21536864 0.19334199 0.35979065
000050 2d 16 9b 3d 5b 7e 60 3e 11 7f 39 3e 78 4c c5 3d
       0.07572589 0.21923201 0.18114878 0.09633726
000060 65 25 f7 bb 0a d0 b9 3e e1 ff 57 3e 23 b1 32 be
       -0.0075422996 0.36291534 0.21093704 -0.17450385
000070 f3 6e 93 3e f9 c8 11 bc 1e 13 0c 3e 06 27 40 3d
       0.28795585 -0.008898013 0.13679168 0.046912216
000080 b8 18 05 be d1 e3 e1 3e 6b 26 cc 3e cf 7d 4e 3e
       -0.1299771 0.44119123 0.3987306 0.2016518
000090 70 e3 4e be 3c 03 18 be cf 91 d8 bd 0f 6e 6d 3e
       -0.20203948 -0.14844984 -0.10574686 0.23186515
0000a0 96 d7 84 be 01 94 bf 3e 8d d3 92 3e 07 6d 94 3e
       -0.2594573 0.37417606 0.28677025 0.2898943
0000b0 09 0f 97 bd 55 81 c6 3e 7c 5b 91 3e 0a 71 0f 3f
       -0.073759146 0.38770548 0.2839011 0.5603186
0000c0 e8 73 f8 bd 07 8b 7b 3f b5 c6 c7 3e 2b 6a ff 3e
       -0.12131482 0.98259014 0.3901879 0.49885687
0000d0 67 51 e7 bd e2 fa 8e 3e 71 6b 7c 3e a9 7d 03 bd
       -0.11294823 0.27925783 0.2465036 -0.03210226
0000e0 43 36 9a 3d a5 bc e5 3e 40 ef 44 3f 05 39 ae 3e
       0.07529881 0.44870487 0.76927567 0.34027877
0000f0 5c df 2d 3d 33 c1 1a 3f 05 d2 8f 3e 2d 0f 2f 3f
       0.04244934 0.6045105 0.2808992 0.6838253

fc.weight f4 [1, 16]
000000 f7 b5 28 bf 01 46 ed 40 8b 3c 8a bf 11 ff bf 40
       -0.65902656 7.4147954 -1.0799726 5.999886
000010 a9 9d 81 be ef 61 82 40 83 3d e6 bd a0 8f 1a bf
       -0.25315598 4.074455 -0.11242201 -0.60375404
000020 f3 5f 62 be 14 7c d3 40 01 86 e7 40 0f de 6c 40
       -0.22106914 6.6088963 7.235108 3.7010534
000030 c1 31 02 bd 1b 2b d3 40 9a b9 82 bf 92 c2 04 41
       -0.03178573 6.599012 -1.0212891 8.2975025
